8k/core/tiny_cnn_v2.pth (torch, 25337 bytes, 20 tensors)

input_proj.weight f4 [16, 5, 1]
0	0xbea35cd8	-0.31906772
1	0xbee5c37f	-0.44875714
2	0x3f53f536	0.8279604
3	0xbf5a8d6a	-0.8537203
4	0x3d04cf3a	0.03242419
5	0x3dd3aa03	0.103351615
6	0xbe29debe	-0.16588876
7	0x3f922257	1.141673
8	0x3dcb4402	0.09925081
9	0xbcaa26a9	-0.020770388
10	0x3da7a596	0.0818588
11	0xbf0fb042	-0.56128323
12	0x3f0e62a9	0.55619293
13	0x3fcec906	1.6155097
14	0x3e3b4e9a	0.18291703
15	0xbe127cd2	-0.14305428
16	0xbf458921	-0.7716237
17	0x3f2b7169	0.66969925
18	0xbd4eef73	-0.050521325
19	0x3e2d46c8	0.16921532
20	0x3ec9fd22	0.39450938
21	0x3f1cc9a3	0.61245173
22	0x3f529a5e	0.82266796
23	0x3f3ff6ce	0.7498597
24	0xbe8e2d2c	-0.27768838
25	0x3e431f36	0.19054875
26	0xbfde8175	-1.7383257
27	0x3ed59ebc	0.41722667
28	0xbfa16e03	-1.2611698
29	0x3cea040d	0.028566385
30	0xbd31cef3	-0.043410253
31	0x3fc183b6	1.511832
32	0x3c7aed95	0.015315433
33	0xbf84d04c	-1.0376067
34	0x3ea58252	0.3232599
35	0xbdf004f9	-0.117196985
36	0xbf82b063	-1.0210079
37	0xbddbbd77	-0.10729497
38	0x3ea057b2	0.31316906
39	0xbc86c666	-0.016452026
40	0xbbca77e2	-0.006178842
41	0x3f9df30e	1.23398
42	0x3ed67937	0.41889355
43	0x3f106c68	0.56415415
44	0x3d8eccab	0.06972631
45	0x3e16c85e	0.14724872
46	0xbf89a5fd	-1.0753781
47	0xbefa9b15	-0.48946443
48	0x3eff23ae	0.4983191
49	0x3df30704	0.118665725
50	0x3ebb080b	0.36529574
51	0xbee40346	-0.44533747
52	0x3e3144e3	0.17311434
53	0xbec600f1	-0.38672593
54	0xbdc29706	-0.09501462
55	0x3e852520	0.26004887
56	0x3f16985d	0.5882624
57	0x3e9ad692	0.3024183
58	0xbe245ec6	-0.16051778
59	0xbd9961e7	-0.074893765
60	0xbddfc706	-0.109266326
61	0xbfce3220	-1.6109047
62	0xbeeda7c1	-0.4641705
63	0x3f06145d	0.5237482
64	0x3e16aba0	0.14713907
65	0x3de34446	0.110970065
66	0x3f97a43d	1.1846997
67	0xbe0d55e0	-0.1380229
68	0x3f1a27dc	0.6021707
69	0x3d5f9db2	0.05459375
70	0x3ea86f2e	0.32897323
71	0xbfd1f12e	-1.6401727
72	0x3e61914c	0.22028083
73	0x3e8d8217	0.27638313
74	0xbd1d9e56	-0.03848108
75	0xbbdc94dd	-0.006731613
76	0xbf686e6b	-0.90793484
77	0x3f1dfbfe	0.61712635
78	0x3df5d1cc	0.12002906
79	0x3e227399	0.1586441

input_proj.bias f4 [16]
0	0x3d935c73	0.07195368
1	0xbe8adfe3	-0.27123937
2	0xbdcdae1f	-0.100429766
3	0xbe4c78e6	-0.19967994
4	0xbe6656f8	-0.22494113
5	0xbe4222c6	-0.18958578
6	0xbe9503ed	-0.29104558
7	0x3e315534	0.17317659
8	0xbe6464c0	-0.22304058
9	0xbdf7ad09	-0.12093551
10	0xbe6901b8	-0.22754562
11	0xbe60dc7a	-0.21959105
12	0x3d90e9ae	0.07075821
13	0xbe46bc3b	-0.19407742
14	0xbe445f98	-0.19177091
15	0xbe7ef05a	-0.24896374

conv1.weight f4 [16, 16, 5]
0	0xbe815c87	-0.25265905
1	0xbd025e6d	-0.031828333
2	0x3a8812bd	0.0010381561
3	0x3dfe4b9e	0.124167666
4	0xbe1b65a9	-0.15175499
5	0xbd4fcc6d	-0.050732065
6	0x3bf08b0f	0.007340796
7	0xbdc543a9	-0.09632046
8	0x3db5a810	0.08869946
9	0x3e7ca843	0.24673562
10	0xbe86ca96	-0.26326436
11	0xbd94a2c6	-0.07257609
12	0xbd1447ed	-0.036201406
13	0xbec332be	-0.3812465
14	0xbedb9773	-0.42888984
15	0xbda3e017	-0.08001726
16	0xbc8d4993	-0.017246997
17	0xbd83c588	-0.064341605
18	0x3e33aa08	0.1754533
19	0x3ed8f4fc	0.42374408
20	0x3e533317	0.20624958
21	0xbded366f	-0.11582648
22	0xbe78a5ef	-0.24282049
23	0x3e829b8d	0.255093
24	0x3d9b4f96	0.07583539
25	0xbe6af971	-0.22946717
26	0x3e231627	0.15926419
27	0x3dacb1ec	0.084323734
28	0x3e476b41	0.19474508
29	0x3dcd1cc2	0.10015251
30	0x3c184f0e	0.009296192
31	0xbe378edc	-0.1792559
32	0xbc563deb	-0.013076286
33	0xbe0a0823	-0.13479666
34	0xbe33c8f7	-0.17557131
35	0xbebdb072	-0.3704868
36	0x3df1ef1d	0.11813185
37	0x3c101e38	0.008796267
38	0xbe57e830	-0.21084666
39	0xbdcd9c98	-0.100396335
40	0x3e636c52	0.2220929
41	0xbe36033b	-0.1777467
42	0xbd2c8de4	-0.042127505
43	0x3eaf7449	0.34268406
44	0x3e6e805b	0.23291151
45	0xbdea0cdf	-0.11428236
46	0xbcb5e960	-0.022206008
47	0xbcbef78f	-0.023311405
48	0x3da54e93	0.080716275
49	0x3ea8ffcb	0.33007655
50	0x3d9f8040	0.077881336
51	0x3dfec135	0.12439195
52	0xbde6d1ef	-0.112705104
53	0x3e42ce81	0.19024087
54	0x3eea321e	0.4574136
55	0x3d95292e	0.07283245
56	0x3df030a4	0.117280275
57	0x3d929787	0.07157808
58	0x3e25825e	0.16163012
59	0x3efab582	0.48966604
60	0xbe15dda6	-0.14635333
61	0x3d2c634a	0.042086877
62	0x3bb9f886	0.0056753783
63	0xbe0b1eb4	-0.13585931
64	0x3e29f8dc	0.16598839
65	0x3e243f83	0.16039853
66	0xbe9e82f0	-0.30959272
67	0x3d0cea93	0.034403395
68	0x3e48a441	0.19593908
69	0x3efb5e8a	0.49095565
70	0xbd87d9a4	-0.066333085
71	0x3dfd15be	0.123576626
72	0xbdb3d5ed	-0.087810375
73	0xbd83ddc8	-0.06438786
74	0x3e5db403	0.216507
75	0xbd8f969a	-0.07011147
76	0x3b7708a6	0.0037694364
77	0xbdcb75ea	-0.099346
78	0x3d4347cc	0.047675893
79	0x3de92200	0.11383438
80	0xbc2854a2	-0.010274084
81	0x3d6b7af9	0.057490323
82	0xbc8f1c3e	-0.017469522
83	0x3de67ee1	0.11254669
84	0xbcb19328	-0.021676615
85	0xbd30e5fa	-0.043188073
86	0x3d6092bd	0.05482744
87	0xbdad8aa3	-0.084737085
88	0x3b9d748f	0.0048051546
89	0xbc7498d2	-0.014929013
90	0xbdf2149b	-0.118203364
91	0x3d1c610b	0.038178485
92	0x3d754a7f	0.059885498
93	0x3dbbfc75	0.09179012
94	0xbe0dc62a	-0.13845125
95	0x3d838772	0.064223185
96	0xbd2ca8b3	-0.04215307
97	0x3dc4169c	0.09574625
98	0xbc9a180c	-0.018810295
99	0x3e0976af	0.1342418
100	0xbc890d37	-0.016729934
101	0x3da8cac8	0.082418025
102	0xbde7138c	-0.11283025
103	0xbded0b69	-0.11574442
104	0xbe08d976	-0.13364205
105	0xbdbfcc3f	-0.09365129
106	0x3e844277	0.2583196
107	0x3e390a55	0.18070348
108	0x3ecad298	0.39613795
109	0x3e8994b9	0.2687128
110	0x3c9c17ad	0.019054258
111	0xbc1f56ca	-0.009725282
112	0xbdc6089a	-0.09669609
113	0xbe40b165	-0.1881767
114	0xbe80af51	-0.25133756
115	0xbdbcea90	-0.09224427
116	0x3d0adb92	0.033900805
117	0xbd36b93e	-0.044610254
118	0x3e6cccb6	0.23124966
119	0x3d9bce8d	0.07607756
120	0x3cbcc7d4	0.023044504
121	0x3dda42a3	0.10657241
122	0xbe0aec10	-0.13566613
123	0xbdc74258	-0.09729451
124	0xbbb091fd	-0.005388497
125	0xbd9536d8	-0.07285851
126	0xbd9e2e13	-0.07723632
127	0x3c8e9d4c	0.01740899
128	0x3eaaecdf	0.33383843
129	0x3e9dd16b	0.30823836
130	0x3c99313a	0.01870023
131	0x3d4f8d08	0.050671607
132	0x3cf70598	0.030154034
133	0x3d0084f6	0.0313768
134	0x3ad4de46	0.0016240559
135	0x3c6687d6	0.014070472
136	0x3dad71d2	0.08468975
137	0x3ca74b07	0.020421518
138	0xbdb62e7e	-0.088955864
139	0xbdaf750d	-0.085672475
140	0x3dbf786e	0.09349142
141	0x3e005b48	0.12534821
142	0x3e3ec295	0.18628915
143	0x3ed0cf87	0.4078333
144	0x3ee114c6	0.4396116
145	0x3e73e0f4	0.23816282
146	0xbd358966	-0.044320486
147	0xbdc8fcd2	-0.09813847
148	0xbe4c8218	-0.19971502
149	0xbe321005	-0.17388923
150	0xbe38fae0	-0.18064451
151	0xbd955cfc	-0.07293126
152	0x3df1f539	0.11814351
153	0x3dfbe775	0.12300006
154	0x3e4f7550	0.20259595
155	0x3ddabce2	0.10680558
156	0x3e38afe5	0.18035848
157	0x3e169851	0.14706542
158	0x3eb3b1c5	0.35096565
159	0xbda146ae	-0.07874809
160	0xbde8fc9f	-0.11376309
161	0xbc180b74	-0.009280074
162	0xbeaaafd7	-0.3333728
163	0xbd3489eb	-0.04407684
164	0xbdcdf18e	-0.100558385
165	0xbe301f7f	-0.17199515
166	0x3e809d1a	0.2511986
167	0xbe485752	-0.1956456
168	0xbd4c881c	-0.04993449
169	0xbd8a11f3	-0.06741705
170	0x3d7757b1	0.060386363
171	0xbd2925ac	-0.041295692
172	0xbd703bb2	-0.05865068
173	0xbddcb9c0	-0.107776165
174	0xbe1eee0f	-0.155205
175	0xbe035c69	-0.1282822
176	0x3d6d317c	0.05790852
177	0x3df8064e	0.121105775
178	0x3e75c9c2	0.24002746
179	0xbc0c3f68	-0.008560039
180	0x3d6cd908	0.057824165
181	0xbcb87f18	-0.02252154
182	0xbda152bb	-0.07877108
183	0x3d1af278	0.037828892
184	0x3d60c905	0.054879207
185	0xbd8292af	-0.06375634
186	0xbe0e8867	-0.13919221
187	0xbe1feb18	-0.15617025
188	0x3d0ebc90	0.034847796
189	0xbce09003	-0.02741242
190	0xbd90f1fe	-0.07077406
191	0x3e592df2	0.21208933
192	0xbdf7cd80	-0.12099743
193	0xbd8c2ed5	-0.0684487
194	0x3e2da649	0.16957964
195	0x3d5a9656	0.053366028
196	0xbe8fa5c3	-0.28056154
197	0xbcabae60	-0.020957172
198	0xbd79a182	-0.06094504
199	0xbe900a58	-0.28132892
200	0x3dcb361f	0.09922432
201	0x3ea26d05	0.317238
202	0x3db51618	0.08842105
203	0x3dd02873	0.10163965
204	0x3e7289ea	0.23685423
205	0x3d9b8a49	0.07594735
206	0x3d23c7c5	0.039985437
207	0x3e9a3ccd	0.30124512
208	0x3e7308f3	0.23733883
209	0x3d8bc23a	0.06824155
210	0x3c1e0be0	0.009646386
211	0xbda7c208	-0.081913054
212	0x3db4cfb0	0.08828676
213	0x3c35bd03	0.011092427
214	0x3d8318f9	0.064012475
215	0xbc13ec66	-0.00902853
216	0x3e4530af	0.19256853
217	0xbd5578dc	-0.052117214
218	0xbce45c0e	-0.027875926
219	0x3dd1e816	0.10249345
220	0xbd2bd705	-0.041953105
221	0xbd5d1408	-0.05397418
222	0x3e6e81b1	0.23291661
223	0x3e486f68	0.19573748
224	0xbe2bb17c	-0.16766924
225	0x3c9cbcb2	0.019132946
226	0x3e88fb61	0.26754287
227	0x3d2162e8	0.039400965
228	0x3e2e5e32	0.1702812
229	0x3e111aa2	0.14170316
230	0xbdbff7c8	-0.093734324
231	0x3d35b0f0	0.044358194
232	0x3a162fed	0.00057291874
233	0xbc669965	-0.014074658
234	0xbc22c873	-0.009935486
235	0xbe378570	-0.17921996
236	0x3d185f92	0.037200518
237	0xbcb4d973	-0.022076344
238	0x3dc95e6a	0.09832461
239	0x3d3f8cae	0.046765022
240	0xbd1d299e	-0.038369767
241	0x3e2f1dbc	0.17101187
242	0xbeac81d8	-0.33692813
243	0x3cb34845	0.021885047
244	0x3d0fc714	0.035101965
245	0x3d538f4a	0.051650323
246	0x3ea4ebeb	0.3221124
247	0xbeba74a8	-0.36417127
248	0xbdb30dda	-0.08742876
249	0x3dd08707	0.101820044
250	0xbd8c3b3f	-0.06847238
251	0x3c8b4fb9	0.017005788
252	0x3da00b47	0.07814651
253	0xbd555a56	-0.052088104
254	0x3c95d09c	0.01828795
255	0xbd865a6f	-0.065602176

conv1.bias f4 [16]
0	0xbdf3114b	-0.11868533
1	0xbd97bccf	-0.07409059
2	0xbe22a7c2	-0.15884307
3	0xbcdbdfd1	-0.026840122
4	0xbdd8d9dc	-0.105884284
5	0xbe31cd8b	-0.17363565
6	0xbe15fc2f	-0.14646982
7	0x3c3962c2	0.01131505
8	0x3ced8b79	0.02899717
9	0xbe0503ff	-0.12989806
10	0x3b6a8688	0.0035785753
11	0xbd8a0e67	-0.06741028
12	0xbe0bb057	-0.13641487
13	0x3d5904af	0.052982982
14	0xbdfc9031	-0.1233219
15	0xbd8c57f2	-0.06852712

conv2.weight f4 [16, 16, 5]
0	0xbe15be7d	-0.14623447
1	0xbd006b34	-0.031352237
2	0xbe287365	-0.1645027
3	0xbe0d9e20	-0.13829851
4	0x3e80e01b	0.2517098
5	0x3ddde8b6	0.10835402
6	0x3cb3b1e8	0.021935418
7	0xbd84ecce	-0.064904794
8	0xbca6b656	-0.020350616
9	0x3d8b05d3	0.0678822
10	0xbe2f1aeb	-0.17100112
11	0xbea2b158	-0.31775928
12	0xbea062b8	-0.31325316
13	0x3e3c24ad	0.18373366
14	0x3eeb3c2b	0.45944342
15	0x3cfc58b0	0.030804008
16	0xbc479654	-0.012181837
17	0xbc1fb731	-0.009748266
18	0x3d98eac0	0.0746665
19	0x3e44df52	0.19225815
20	0xbe39cb70	-0.18144011
21	0xbe891fcf	-0.2678208
22	0xbe861de2	-0.26194674
23	0x3e087e61	0.1332946
24	0x3ed493d3	0.4151903
25	0x3d91059d	0.07081149
26	0x3e6177ca	0.22018352
27	0xbe0d1777	-0.13778482
28	0xbe9dd0c8	-0.3082335
29	0xbf49077c	-0.78527045
30	0xbe204360	-0.15650702
31	0xbdaefd40	-0.08544397
32	0x3e226eb9	0.1586255
33	0xbd6821af	-0.05667275
34	0x3eded20d	0.4351963
35	0xbd931f4a	-0.07183702
36	0x3c1fe575	0.009759297
37	0xbddc8980	-0.107684135
38	0x3dcb2223	0.099186204
39	0x3e29e60f	0.16591667
40	0xbc2c921e	-0.010532884
41	0xbd1a0476	-0.03760191
42	0xbdb28b42	-0.087179676
43	0x3e040f11	0.12896372
44	0x3e625b84	0.22105223
45	0xbe4bbe4d	-0.19896813
46	0x3db3287a	0.08747955
47	0x3d7e252f	0.06204718
48	0x3d9b5048	0.07583672
49	0x3de6e2e1	0.112737425
50	0x3e79f639	0.24410333
51	0x3d95e1ef	0.07318484
52	0x3dbf07db	0.0932767
53	0x3d6a7b70	0.057246625
54	0x3d5e50ba	0.054276206
55	0xbc4e8e88	-0.012607224
56	0xbe60c4f0	-0.21950126
57	0xbd639c2d	-0.055568863
58	0x3cc37a0f	0.023861913
59	0x3db6cff8	0.08926386
60	0xbd5c2803	-0.053749096
61	0x3de383e9	0.11109144
62	0x3da3653c	0.07978293
63	0x3d686c79	0.056744073
64	0xbe75da3a	-0.24009028
65	0xbca101e8	-0.01965423
66	0xbdde5b8c	-0.10857305
67	0xbdafd512	-0.08585562
68	0x3d7515fb	0.059835415
69	0x3dc9d869	0.0985573
70	0x3c3fd1f6	0.011707773
71	0x3d8429d7	0.06453293
72	0xbe3b206b	-0.18274085
73	0x3e08a175	0.13342841
74	0xbd8c943f	-0.06864213
75	0x3d33a434	0.04385777
76	0x3db5deb9	0.088803716
77	0xbddefc34	-0.10887948
78	0x3d594284	0.05304195
79	0x3d5de45b	0.054172855
80	0x3e6c4296	0.23072276
81	0xbc774179	-0.0150912935
82	0x3e6d9172	0.23200014
83	0xbcffcdc0	-0.031226039
84	0xbd08bb36	-0.033381663
85	0x3c87c9eb	0.016575774
86	0x3c52593e	0.01283866
87	0x3de1bd60	0.110224485
88	0xbccfeb2f	-0.025380699
89	0xbe3132d1	-0.17304541
90	0x3eff4293	0.4985548
91	0x3ea7c405	0.3276674
92	0x3e2ae85b	0.16690199
93	0xbe0dbb8f	-0.13841079
94	0xbe9d5cc6	-0.30734843
95	0xbd44ef9a	-0.048080064
96	0x3d9fa51f	0.07795166
97	0x3e00c151	0.12573744
98	0x3d112ee6	0.035445116
99	0xbd8e995a	-0.06962843
100	0x3e9c401b	0.3051766
101	0x3e9fbebd	0.3120021
102	0x3e0d14b8	0.13777435
103	0x3e30df1a	0.17272606
104	0x3d84b8b8	0.06480545
105	0x3e6e6b28	0.23283064
106	0xbdce3c12	-0.10070051
107	0xbd78d97a	-0.060754277
108	0x3c973593	0.018458163
109	0x3f053d6c	0.5204685
110	0x3e23c6ae	0.15993759
111	0x3d6c8731	0.057746116
112	0x3eaf4d4a	0.34238654
113	0xbd615c19	-0.05501947
114	0xbe5da765	-0.21645887
115	0xbd6eac2c	-0.058269665
116	0x3d7a1ba2	0.06106151
117	0x3da85457	0.082192115
118	0x3b94337c	0.004522739
119	0xbde4a2f4	-0.11163893
120	0x3cc06f43	0.023490554
121	0x3e0e7929	0.13913406
122	0x3da23189	0.07919604
123	0xbd2aad9f	-0.041669484
124	0xbd8aa143	-0.067690395
125	0xbe03a420	-0.12855577
126	0x3d8c9cf9	0.06865878
127	0xbc81e432	-0.015855882
128	0x3cc2d33f	0.02378237
129	0xbd864a2c	-0.06557116
130	0xbeeb82ef	-0.45998332
131	0xbeea9612	-0.4581762
132	0xbe7d0ea9	-0.24712624
133	0x3d943520	0.07236695
134	0x3e29fd2b	0.16600482
135	0x3d447f8e	0.047973208
136	0x3cef5cad	0.029218996
137	0x3c26745a	0.010159576
138	0xbe9616e6	-0.29314345
139	0xbd41dc01	-0.047328953
140	0xbd4c5b20	-0.04989159
141	0x3d116256	0.03549417
142	0xbe38ddd1	-0.18053366
143	0x3ccaf7e9	0.024776416
144	0xbd24f7e8	-0.040275484
145	0x3bb3d00a	0.0054874467
146	0x3dced5f1	0.100994
147	0x3d0cc85f	0.034370776
148	0x3cb7dcf0	0.022444218
149	0xbd86215e	-0.06549333
150	0x3d67fe5a	0.056639053
151	0x3c5d6131	0.013511942
152	0x3b957616	0.004561196
153	0x3bd937b6	0.0066289557
154	0x3c80d69c	0.015727334
155	0xbbfb69c2	-0.0076725194
156	0x3df65b41	0.12029124
157	0x3e1aff24	0.15136391
158	0x3ce12c16	0.027486842
159	0xbd9f593d	-0.07780693
160	0xbea581be	-0.32325548
161	0xbecac590	-0.39603853
162	0xbe75a268	-0.23987734
163	0xbe958207	-0.29200765
164	0xbc8bbab9	-0.01705681
165	0x3bd761ba	0.006572929
166	0xbd648b0f	-0.05579668
167	0xbb84463c	-0.004036693
168	0x3c80cded	0.015723193
169	0xbd0a86da	-0.03382001
170	0xbbacb4ec	-0.005270591
171	0x3eaa7bf6	0.332977
172	0x3ec82b4a	0.39095527
173	0x3e971fbf	0.29516408
174	0x3e383b98	0.17991483
175	0xbdc3d798	-0.095626056
176	0xbc0f84b7	-0.008759669
177	0x3da9049a	0.08252831
178	0x3dc87c01	0.09789277
179	0x3dc43892	0.095811024
180	0xbd6dd5ab	-0.058065098
181	0x3e52f701	0.20602037
182	0x3e7ec075	0.24878104
183	0x3e2d1015	0.16900666
184	0x3ddee289	0.10883052
185	0xbf7a2675	-0.9771493
186	0xbf50bd50	-0.8153887
187	0xbecb5296	-0.39711446
188	0xbe41c4c8	-0.18922722
189	0x3eaf0edb	0.3419102
190	0x3d281a97	0.041040983
191	0x3df34c19	0.11879749
192	0x3ad549cb	0.0016272602
193	0xbde19ed5	-0.11016623
194	0xbdb1e66a	-0.08686526
195	0xbe040c60	-0.12895346
196	0x3badb1f5	0.005300755
197	0x3dc09e19	0.09405155
198	0x3df9a974	0.12190524
199	0x3e0ec00c	0.13940448
200	0xbe175492	-0.14778355
201	0xbd505823	-0.050865304
202	0x3d49ee34	0.049299434
203	0x3da32ba9	0.07967312
204	0x3e1011e4	0.14069325
205	0x3c7b45df	0.015336483
206	0x3d2af9de	0.0417422
207	0x3b2a6957	0.002600273
208	0x3da8f71e	0.08250259
209	0x3c870b38	0.016484842
210	0xbdf573c5	-0.11984972
211	0xbcd076d0	-0.02544728
212	0x3df6ad69	0.12044794
213	0x3e245842	0.16049293
214	0x3d7c5801	0.061607365
215	0x3ccb327b	0.024804344
216	0xbcabf0f2	-0.020988915
217	0x3d65b158	0.05607733
218	0x3d9d87fd	0.07691953
219	0x3d2ba0c9	0.041901384
220	0x3e746540	0.23866749
221	0x3e00c0e2	0.12573579
222	0x3e2beacd	0.16788788
223	0x3e26a4dc	0.16273826
224	0x3ce5348c	0.027979158
225	0xbe06394f	-0.13107799
226	0xbd1bc27d	-0.038027275
227	0xbdf97936	-0.12181322
228	0x3d4a7b41	0.04943395
229	0xbdee3608	-0.116313994
230	0xbe7e07ef	-0.24807714
231	0x3d87b4cd	0.06626282
232	0x3de0beb0	0.10973871
233	0x3dc18a74	0.09450236
234	0xbbc01af5	-0.0058625885
235	0x3e269b05	0.16270073
236	0xbd48f22c	-0.049059078
237	0x3c9fbe2f	0.019499866
238	0xbd6fa698	-0.058508486
239	0x3d8043ea	0.062629536
240	0x3d8c0bc9	0.06838185
241	0x3e5c9041	0.21539403
242	0xbd095a4b	-0.033533376
243	0xbe27477a	-0.1633586
244	0x3e711360	0.23542547
245	0x3ca7bb5c	0.020475082
246	0xbc4747f9	-0.012163156
247	0xbdaaed54	-0.08346048
248	0xbdb975d5	-0.09055678
249	0xbaa4bac2	-0.0012567865
250	0xbedf36fa	-0.4359663
251	0xbeb6b577	-0.35685322
252	0x3e9c43eb	0.30520567
253	0xbd8ffc22	-0.070305124
254	0x3e203cca	0.15648189
255	0x3ddffed8	0.109372795

conv2.bias f4 [16]
0	0xbe830e7a	-0.25596982
1	0x3d837517	0.064188175
2	0xbe3a523d	-0.18195434
3	0xbdd2990f	-0.102831
4	0xbe2aa91d	-0.16666074
5	0x3ded5c3a	0.115898564
6	0xbe36a2a6	-0.17835483
7	0x3e0d9c3a	0.13829127
8	0xbd7031e8	-0.058641344
9	0xbd969f1b	-0.07354566
10	0x3d9c79c9	0.07640416
11	0x3c9669bf	0.01836097
12	0xbe97586f	-0.29559657
13	0x3b8ed062	0.0043583373
14	0x3d5a5b2c	0.053309605
15	0x3d7caf41	0.061690573

conv3.weight f4 [16, 16, 3]
0	0x3dff5656	0.12467639
1	0xbc73b913	-0.014875668
2	0x3e4f1c6f	0.2022569
3	0xbe10b7c6	-0.14132604
4	0xbdebadec	-0.11507782
5	0xbd358595	-0.044316847
6	0xbe99a4c2	-0.30008513
7	0xbeb776e4	-0.35832894
8	0xbd72fe04	-0.05932428
9	0x3e0715ee	0.1319196
10	0xbe0ffe56	-0.14061865
11	0xbd09a09e	-0.033600442
12	0x3e121f3d	0.14269729
13	0xbe36b93b	-0.17844097
14	0xbc98b311	-0.018640073
15	0xbd458c19	-0.04822931
16	0x39bbbfc2	0.0003581029
17	0x3d93700b	0.07199105
18	0x3e6a3c20	0.22874498
19	0xbdb6b244	-0.0892072
20	0xbded1890	-0.115769506
21	0xbdff4fdb	-0.12466403
22	0x3d92dcaa	0.071709946
23	0x3c5784b2	0.013154196
24	0x3cd6dd06	0.026228439
25	0xbd280407	-0.041019466
26	0xbe46f2ff	-0.19428633
27	0xbea4565f	-0.32097146
28	0xbe77d568	-0.24202502
29	0xbddba3cb	-0.107246004
30	0xbdae3ba6	-0.08507471
31	0x3e11a77f	0.14224051
32	0x3d671474	0.05641599
33	0xbd83b1e2	-0.06430413
34	0xbbf18f5c	-0.007371826
35	0xbd2eef03	-0.042708408
36	0xbdce3e67	-0.10070496
37	0xbe4f0e05	-0.20220192
38	0xbd8e3b3c	-0.06944892
39	0x3cdefa90	0.027219087
40	0x3dc820b5	0.09771863
41	0xbb6688f3	-0.0035176843
42	0xbd383fc6	-0.044982694
43	0x3d662629	0.056188736
44	0x3d08ab04	0.03336622
45	0x3c4168a6	0.011804735
46	0xbd9c15c0	-0.07621336
47	0x3dd38acd	0.103292085
48	0xbd227e0f	-0.039671
49	0xbe633258	-0.22187173
50	0x3e43d72c	0.1912505
51	0x3d9c44bc	0.076302975
52	0x3dffb582	0.12485792
53	0x3ca8cc49	0.020605223
54	0xbd93f7dd	-0.072250105
55	0x3e3c7592	0.18404225
56	0x3e4091df	0.18805645
57	0x3bbe7889	0.0058127088
58	0xbc648248	-0.013947077
59	0xbdd08d8e	-0.101832494
60	0x3e042531	0.12904812
61	0x3daa521c	0.08316442
62	0x3dd22ea7	0.102628045
63	0x3e3d2fac	0.18475217
64	0x3ec998e2	0.39374453
65	0x3d943e8c	0.07238492
66	0xbdd9b8f9	-0.10630984
67	0xbe272bc9	-0.16325296
68	0x3e24fea2	0.1611276
69	0x3dbb13af	0.09134614
70	0x3e1f04a8	0.1552912
71	0xbe6dda5b	-0.23227827
72	0xbdf8dd91	-0.121516354
73	0xbe8fa690	-0.28056765
74	0xbe1701ae	-0.14746734
75	0xbccea2d8	-0.025224134
76	0x3eae3985	0.3402826
77	0x3e303dfc	0.17211145
78	0x3e8e018c	0.27735555
79	0x3de9adfe	0.114101395
80	0x3e4a7f58	0.1977514
81	0xbd6ae6d3	-0.057349037
82	0xbe20ded3	-0.1571
83	0xbe2118dc	-0.1573214
84	0xbdaddfd1	-0.08489955
85	0x3eed0e35	0.46299902
86	0x3edd06f2	0.4316936
87	0xbe084927	-0.13309155
88	0x3dcee027	0.101013474
89	0xbdeaf355	-0.11472193
90	0x3d569c4b	0.052395146
91	0x3df1fb02	0.11815454
92	0x3d404940	0.046944857
93	0x3db8ec2f	0.090294234
94	0x3e73a548	0.23793519
95	0x3e7c9bc2	0.24668792
96	0xbe006687	-0.12539111
97	0xbe040fa2	-0.12896588
98	0xbe0c77d8	-0.13717592
99	0x3e220bba	0.15824786
100	0x3e5f10e7	0.21783791
101	0x3dc874a0	0.097878695
102	0x3e0dba49	0.13840593
103	0xbd9791b7	-0.0740084
104	0x3e3dcf19	0.18536033
105	0xbe0d8be4	-0.13822895
106	0x3df8db04	0.12151149
107	0x3e82c0fe	0.25537866
108	0xbd3f2e51	-0.04667503
109	0xbcddd51b	-0.027079156
110	0x3e7c67c4	0.24648958
111	0x3de6a603	0.11262133
112	0x3e25230a	0.16126648
113	0x3e08c20b	0.13355272
114	0xbe60078a	-0.21877876
115	0x3e9b33d4	0.3031298
116	0x3ea773dc	0.3270558
117	0xbc9f11c8	-0.019417658
118	0x3e17a4ea	0.14809003
119	0x3e6d2160	0.23157263
120	0xbcf0031a	-0.029298354
121	0x3de81656	0.11332385
122	0x3e371afc	0.17881387
123	0xbe8c2b3a	-0.2737673
124	0xbc0db3c1	-0.008648814
125	0x3d94c1d3	0.072635315
126	0x3d360858	0.04444155
127	0x3e27abb3	0.16374092
128	0x3e29b601	0.16573335
129	0x3d3f3aeb	0.046687048
130	0x3d38ea2d	0.045145202
131	0x3d77d3c6	0.060504697
132	0x3e781b52	0.24229172
133	0x3e955af6	0.2917096
134	0xbdb5d7fa	-0.08879085
135	0x3d54ed87	0.051984336
136	0x3d151161	0.036393527
137	0xbe34329f	-0.17597435
138	0x3e00f87d	0.12594791
139	0x3e50bfe6	0.20385703
140	0x3e051bd5	0.12998898
141	0x3e0e79b8	0.1391362
142	0x3c9be1dd	0.019028598
143	0xbe0c7e4c	-0.13720053
144	0x3ed149b7	0.40876552
145	0x3f03f239	0.5154148
146	0x3ebe6bbc	0.3719157
147	0x3e47e704	0.19521719
148	0x3e384058	0.17993295
149	0x3e0c7bd0	0.13719106
150	0x3e79be82	0.24389079
151	0x3da42037	0.08013957
152	0x3ccd11e4	0.025032945
153	0x3d22175a	0.03957305
154	0xbcf5296c	-0.029926978
155	0x3ecf518b	0.404919
156	0x3e37782a	0.17916933
157	0x3dbd8475	0.0925378
158	0x3e2055c2	0.15657714
159	0xbd40e848	-0.04709652
160	0x3d516944	0.05112578
161	0xbe6f0d88	-0.23345006
162	0x3e210840	0.15725803
163	0x3e9682f8	0.29396796
164	0x3eaa4ea2	0.33263117
165	0x3e90895a	0.2822979
166	0xbeea43b4	-0.45754778
167	0xbe5ed657	-0.21761452
168	0x3c3cfce1	0.0115349
169	0x3d6cf261	0.057848338
170	0xbf0386f3	-0.5137779
171	0xbe0ac604	-0.135521
172	0x3d97c6d7	0.074109726
173	0x3e1e320b	0.15448777
174	0x3e03b780	0.12862968
175	0xbd2ba23d	-0.04190277
176	0x3e391f94	0.18078452
177	0x3e0c4d65	0.13701399
178	0x3e1fd687	0.1560918
179	0x3e3a8eca	0.18218532
180	0x3e946eba	0.28990728
181	0x3de4f1e7	0.11178952
182	0xbc0e2be7	-0.008677459
183	0x3d313344	0.04326178
184	0xbbe1b779	-0.0068883267
185	0xbe8e0ce4	-0.2774421
186	0xbe6018bc	-0.21884435
187	0xbdada640	-0.08478975
188	0x3eb0fa5f	0.34566018
189	0xbdaa6703	-0.08320429
190	0x3b418545	0.0029528898
191	0xbda5d513	-0.08097281
192	0x3d00bdd6	0.03143104
193	0xbbf75727	-0.007548231
194	0x3ed815db	0.42204174
195	0x3d6bb296	0.05754336
196	0x3e03a465	0.1285568
197	0x3dbf0247	0.09326606
198	0x3d6b63ea	0.057468332
199	0x3d81d540	0.06339502
200	0xbd93ddee	-0.07220064
201	0xbe01be1e	-0.1267018
202	0xbdd9014f	-0.10595953
203	0x3da1151d	0.07865355
204	0x3df32516	0.11872308
205	0x3bf1d665	0.007380294
206	0xbe26b059	-0.16278209
207	0x3d0d9652	0.034567185
208	0xbd8112ad	-0.0630239
209	0x3d31f598	0.043447107
210	0x3e0b172f	0.13583063
211	0x3d7b4c1f	0.06135189
212	0xbd6cf33a	-0.057849146
213	0xbd2ae57e	-0.041722767
214	0x3d609b6a	0.054835714
215	0x3e701b23	0.23447852
216	0xbebd58bf	-0.3698177
217	0xbd4ab160	-0.049485564
218	0x3e452f70	0.19256377
219	0x3e04b827	0.12960874
220	0x3c8c722b	0.017144283
221	0xbe91322a	-0.28358585
222	0x3d99a643	0.07502415
223	0x3ddc1c73	0.10747614
224	0x3db89d53	0.09014382
225	0xbdb5194c	-0.088427156
226	0x3d71700e	0.058944754
227	0x3e1f548e	0.15559599
228	0xbcaf4d2e	-0.021399107
229	0x3cbd3612	0.023097072
230	0xbe87ef89	-0.26549938
231	0xbd7ab6b5	-0.0612094
232	0x3d1fa347	0.038974073
233	0x3c814a52	0.015782509
234	0x3db17740	0.08665323
235	0x3e002d0c	0.12517184
236	0x3c92381e	0.017849024
237	0x3d1e6e92	0.038679667
238	0x3dbcae2f	0.092129104
239	0x3d1c6d40	0.038190126
240	0xbe4fec7e	-0.20305058
241	0xbe303ebf	-0.17211436
242	0xbe7e4fe5	-0.24835165
243	0x3de51401	0.11185456
244	0x3af54f5e	0.001871567
245	0x3e007305	0.12543876
246	0x3e05281b	0.1300358
247	0x3e89191d	0.26776972
248	0x3e16f4b0	0.14741778
249	0xbe9aba49	-0.3022025
250	0x3e15f9b3	0.14646034
251	0x3e29b9d9	0.16574802
252	0xbebde097	-0.3708541
253	0xbe20b135	-0.15692599
254	0xbbd5f21f	-0.006529107
255	0x3e332888	0.1749593

conv3.bias f4 [16]
0	0x3e242b4b	0.1603214
1	0xbca97ffc	-0.02069091
2	0x3cf432be	0.029809352
3	0xbe12c067	-0.14331208
4	0xbc7c22db	-0.01538917
5	0x3db284c9	0.08716733
6	0xbd86caad	-0.06581626
7	0x3e3bfd56	0.18358359
8	0x3d5e14cf	0.054219063
9	0x3ca68ed0	0.02033177
10	0x3bd6fad9	0.006560665
11	0xbd947488	-0.07248789
12	0xbde7bbc1	-0.11315108
13	0x3da3c7b5	0.079970755
14	0x3ea92cb1	0.3304191
15	0xbd1039b5	-0.035211284

conv4.weight f4 [16, 16, 3]
0	0x3da971f3	0.08273687
1	0xbe6909dd	-0.22757669
2	0xbd7bff34	-0.061522678
3	0x3e56075a	0.20901242
4	0xbb4e6117	-0.0031490976
5	0xbc8b0721	-0.016971173
6	0x3c4c4dde	0.012469737
7	0xbea198a1	-0.3156176
8	0xbd5ff147	-0.05467346
9	0x3cc1e365	0.023668
10	0x3d17a739	0.03702471
11	0x3d3684c8	0.044560224
12	0x3de9119a	0.1138031
13	0xbdca83ba	-0.09888406
14	0x3dc0818c	0.09399709
15	0x3d81057a	0.06299873
16	0x3d679513	0.056538653
17	0x3e123d23	0.14281134
18	0x3ca37c3c	0.0199567
19	0x3d74f865	0.0598072
20	0x3c5c0532	0.013428973
21	0x3e61478e	0.21999952
22	0x3e00d71b	0.12582056
23	0xbb125b11	-0.0022332112
24	0x3cdf0df1	0.027228327
25	0xbdea866e	-0.11451422
26	0x3cddc72d	0.027072513
27	0xbe79966b	-0.24373786
28	0x3ceecf6e	0.029151645
29	0x3df6de7c	0.12054154
30	0xbe5d1c18	-0.21592748
31	0x3d78a08e	0.060699992
32	0xbe2fb28a	-0.17157951
33	0x3cf65421	0.030069413
34	0xbe19ac77	-0.15007196
35	0x3d2cd7c6	0.042197965
36	0xbd75792b	-0.059930008
37	0xbdc3a79e	-0.09553455
38	0xbd05a709	-0.03263
39	0xbdede54b	-0.11616
40	0x3e3897c4	0.18026644
41	0x3d9598b9	0.0730452
42	0xbc390928	-0.011293687
43	0xbd0fc914	-0.035103872
44	0xbdced752	-0.10099663
45	0xbd84b16a	-0.064791515
46	0xbdbdcc6f	-0.09267508
47	0xbd2e7a3e	-0.042597048
48	0xbe79a121	-0.24377872
49	0x3eac29f4	0.33625758
50	0xbe30657c	-0.17226213
51	0x3e3fa57e	0.18715474
52	0xbe0e697f	-0.13907431
53	0xbdfd7ee1	-0.12377716
54	0x3dff2dac	0.12459883
55	0xbe05e265	-0.13074644
56	0x3d8430bc	0.06454608
57	0xbe3619cd	-0.1778328
58	0xbd313515	-0.043263514
59	0x3d8ae2a7	0.06781512
60	0xbe0daa1b	-0.13834421
61	0x3df7dc3b	0.121025525
62	0x3d1ab9a3	0.037774693
63	0x3e93b4b2	0.28848797
64	0x3ce396e1	0.027781906
65	0x3e4a6267	0.197641
66	0x3e176d68	0.14787829
67	0xbd6bc4bd	-0.05756067
68	0xbe8e9ea3	-0.27855405
69	0x3d9521c2	0.072818294
70	0x3c8391ed	0.016060794
71	0x3e3085d1	0.17238547
72	0x3dfd7475	0.12375728
73	0x3e6504d8	0.22365129
74	0xbebb7d94	-0.36619246
75	0x3dde6489	0.10859019
76	0xbe761f6e	-0.24035427
77	0xbdb9159b	-0.09037324
78	0x3dc3b9a9	0.09556896
79	0xbd0e1cf7	-0.03469559
80	0xbd5de066	-0.05416908
81	0xbd59fd51	-0.053220097
82	0x3ebe9c9f	0.37228867
83	0xbc014ce4	-0.007891867
84	0x3e45c6aa	0.19314066
85	0xbc107180	-0.008816123
86	0x3d1fbaef	0.038996633
87	0x3e1e26d4	0.15444499
88	0xbe5fed82	-0.21867946
89	0xbe07bf2e	-0.13256523
90	0xbc91aaa9	-0.017781572
91	0x3e1c98b7	0.15292631
92	0x3e049bf5	0.12950118
93	0x3d9c4a20	0.07631326
94	0x3e455c97	0.19273601
95	0x3cb8b6c7	0.022548093
96	0xbd0cf3cf	-0.0344122
97	0xbe72ee32	-0.23723677
98	0x3e8adefe	0.27123255
99	0x3da68ac5	0.08131937
100	0x3e1df5f4	0.15425855
101	0x3e4bcfbe	0.19903466
102	0x3cc86c4f	0.024465708
103	0xbe3b03d1	-0.18263175
104	0xbda7a2b5	-0.08185331
105	0xbd0e82e0	-0.03479278
106	0xbe163c8e	-0.14671537
107	0x3d66b92a	0.05632893
108	0x3d10a566	0.035313986
109	0xbc3f6f24	-0.011684213
110	0x3cb48525	0.022036145
111	0x3e198ca5	0.14995058
112	0x3cbb084e	0.022831108
113	0x3cf3b232	0.029748056
114	0x3eb836a7	0.35979196
115	0xbd7740e2	-0.06036461
116	0xbe315119	-0.17316093
117	0x3dbe52f0	0.09293163
118	0x3d689cdf	0.05679023
119	0x3cf52e29	0.029929237
120	0x3e2f8a5c	0.17142624
121	0x3d843eeb	0.06457313
122	0x3d49b10a	0.049241103
123	0xbe6e9073	-0.2329729
124	0x3d401594	0.04689558
125	0xbcd6a7fa	-0.026203144
126	0xbdd2c464	-0.10291365
127	0xbdadf0e3	-0.08493211
128	0xbe325a61	-0.1741729
129	0x3cf77ac5	0.030209908
130	0xbe49342f	-0.19648813
131	0x3c417075	0.011806597
132	0x3d14d9f1	0.036340658
133	0x3dbf522b	0.09341844
134	0x3d9d80c6	0.07690577
135	0x3c7ff85f	0.015623181
136	0x3d64083b	0.05567191
137	0xbc920626	-0.017825197
138	0x3d6be3d0	0.057590306
139	0x3dc83ef5	0.09777633
140	0x3d5b9559	0.053609226
141	0x3cb85ef7	0.02250622
142	0x3e3218f8	0.17392337
143	0x3cd18245	0.025574813
144	0x3c5f3ffe	0.013626097
145	0x3daf6835	0.08564798
146	0x3e034ceb	0.1282231
147	0xbdedab62	-0.11604954
148	0x3cb3f1fb	0.021965971
149	0x39d2d110	0.00040210085
150	0xbe6d702e	-0.23187324
151	0xbe21e406	-0.1580964
152	0x3daf41ac	0.08557448
153	0x3cbadce0	0.0228104
154	0xbe336eb2	-0.17522696
155	0x3d5845a4	0.05280079
156	0xbdde7ea6	-0.10864
157	0xbc1d9470	-0.00961791
158	0x3e582867	0.21109162
159	0xbe32e9f0	-0.17472053
160	0x3e66fa47	0.2255641
161	0xbc21a67a	-0.009866351
162	0x3e63e3b6	0.22254834
163	0xbd89ff76	-0.067381784
164	0xbdfa52c0	-0.122228146
165	0x3b3ab734	0.0028490545
166	0x3cdcb53f	0.026941894
167	0x3d04bada	0.032404758
168	0x3e06a45e	0.13148639
169	0xbe8a1818	-0.26971507
170	0x3d942272	0.072331324
171	0x3dfc81e2	0.12329461
172	0x3c82e113	0.015976464
173	0xbd3dbe43	-0.046324026
174	0x3cfc263a	0.030779947
175	0x3dcfd009	0.101471014
176	0xbd8b6753	-0.06806817
177	0xbc5c8b85	-0.013460998
178	0xbd28adf0	-0.041181505
179	0xbd847024	-0.064667016
180	0xbe349a36	-0.17636952
181	0xbc98974e	-0.018626835
182	0xbdfe97fe	-0.12431334
183	0x3dabeb16	0.083944485
184	0x3e12ac54	0.1432355
185	0x3ddd1a99	0.10796089
186	0xbe04aa2c	-0.1295554
187	0x3d3d7b27	0.046260025
188	0xbc7935e9	-0.015210607
189	0xbc73471b	-0.014848496
190	0x3db67961	0.0890987
191	0xbd821d65	-0.06353263
192	0xbe875ed3	-0.26439533
193	0x3d2ce0c5	0.042206544
194	0xbe2f2e21	-0.1710744
195	0xbe3d6128	-0.18494093
196	0xbd8843d3	-0.066535614
197	0xbab36511	-0.0013686736
198	0xbe822565	-0.25419155
199	0xbdaad657	-0.08341663
200	0x3e7a68a2	0.24453977
201	0xbd63da48	-0.05562809
202	0xbe1c80d9	-0.15283526
203	0xbe1ac811	-0.15115382
204	0xbf010796	-0.504022
205	0xbe3605f3	-0.17775707
206	0x3d0df6be	0.03465914
207	0x3d918e1c	0.07107183
208	0x3e85a27c	0.26100528
209	0x3e05f072	0.13080004
210	0xbeb4dd30	-0.35325003
211	0xbe18b14a	-0.1491138
212	0x3d728f01	0.05921841
213	0xbb0a5f08	-0.0021113772
214	0x3e6346bc	0.22194952
215	0x3e777b78	0.24168193
216	0xbb546660	-0.0032409653
217	0xbe76b55c	-0.2409262
218	0x3e5be9c4	0.21475893
219	0xbd8dd2fc	-0.06925008
220	0xbe833f51	-0.25634244
221	0xbe3a85e0	-0.18215132
222	0xbd7762c9	-0.060396943
223	0xbdcd1442	-0.100136295
224	0xbe3f6e21	-0.18694355
225	0x3df854d0	0.12125552
226	0xbe7ddf98	-0.24792325
227	0xbde78149	-0.11303956
228	0xbdc852da	-0.09781428
229	0xbe13109c	-0.14361805
230	0xbdd00f50	-0.10159171
231	0x3e1549c5	0.14578922
232	0x3d6ac377	0.057315316
233	0x3e71b8a9	0.23605599
234	0x3dde8373	0.10864916
235	0x3d7106f9	0.05884454
236	0x3e4f8c91	0.20268466
237	0xbe4fc090	-0.202883
238	0xbe6c3edc	-0.23070854
239	0xbdecc8c1	-0.11561728
240	0x3e2c5777	0.1683024
241	0xbd8b96bf	-0.06815862
242	0x3e197f1c	0.14989895
243	0x3bcc1ac0	0.006228775
244	0x3e488522	0.19582036
245	0x3e753d80	0.23949242
246	0x3e59fccd	0.21287842
247	0x3e406c25	0.18791254
248	0x3eeca707	0.46221182
249	0x3db0bfb1	0.08630312
250	0x3e1011d0	0.14069295
251	0xbe86cac9	-0.26326588
252	0x3ec64819	0.3872688
253	0xbc128834	-0.008943606
254	0x3d173cdd	0.036923278
255	0x3df7f78b	0.12107762

conv4.bias f4 [16]
0	0x3c10a529	0.00882844
1	0xbd695dec	-0.056974337
2	0xbdf15448	-0.117836535
3	0xbdbf489b	-0.0934002
4	0xbc29c681	-0.010362268
5	0xbd1bdc6a	-0.038052
6	0x3dc5621d	0.09637854
7	0x3d4fdb1b	0.050746065
8	0x3d40a694	0.04703386
9	0x3daf7b16	0.08568399
10	0x3d9c9e22	0.07647349
11	0xbdba62b0	-0.091008544
12	0xbdbde734	-0.09272614
13	0x3d7bea10	0.061502516
14	0xbb1cfebc	-0.0023955544
15	0x3dad953e	0.08475731

norm1.weight f4 [16]
0	0x3f54b2a4	0.83085084
1	0x3f3b0fbc	0.73070884
2	0x3f57b95b	0.84267205
3	0x3ede504e	0.43420643
4	0x3f480de2	0.78146183
5	0x3f1e194a	0.6175734
6	0x3f194605	0.59872466
7	0x3eb42ab9	0.35188845
8	0x3eb81d15	0.35959688
9	0x3f1e5eb5	0.6186326
10	0x3f870ac7	1.0550164
11	0x3f2db9f3	0.6786186
12	0x3f44f338	0.7693362
13	0x3f16473c	0.58702445
14	0x3f287625	0.65805274
15	0x3f25ef55	0.64818317

norm1.bias f4 [16]
0	0x3e188989	0.14896215
1	0xbc45eb73	-0.012080061
2	0x3e1e0037	0.1542977
3	0xbe09abee	-0.13444492
4	0x3d6c0bcf	0.05762845
5	0x3e4b3c6b	0.19847266
6	0x3e53dac2	0.20688918
7	0xbe895342	-0.26821333
8	0xbe924b39	-0.28573015
9	0x3da66330	0.08124387
10	0x3cf19c45	0.02949346
11	0x3c3fd169	0.011707642
12	0x3dba75b9	0.09104485
13	0x3c8f2543	0.017473822
14	0x3d0db281	0.034594063
15	0x3d888c4b	0.06667384

norm2.weight f4 [16]
0	0x3f85cb9a	1.0452759
1	0x3f347408	0.7048955
2	0x3f7703e6	0.96490324
3	0x3f4d58fd	0.8021391
4	0x3f856a5e	1.0423086
5	0x3f4a49b9	0.7901874
6	0x3f72ea8a	0.9488913
7	0x3f0e72d3	0.5564396
8	0x3f0c1202	0.5471498
9	0x3f7734a3	0.9656469
10	0x3f6da9fa	0.9283749
11	0x3f442748	0.7662244
12	0x3f8cd8ad	1.1003624
13	0x3f4fb2df	0.8113231
14	0x3f738b3a	0.9513432
15	0x3f93453f	1.1505507

norm2.bias f4 [16]
0	0x3c232b52	0.009959059
1	0xbd4907ec	-0.04907982
2	0xbd4dddbf	-0.0502603
3	0x3cc848c1	0.024448754
4	0xbd5ef4a0	-0.05443251
5	0x3d7af681	0.06127024
6	0xbb3581a5	-0.0027695682
7	0x3c50acd6	0.01273652
8	0xbbb0f5cd	-0.0054003955
9	0x3d2b14bb	0.041767817
10	0x3d9092bd	0.07059238
11	0xbe2475b0	-0.16060519
12	0x3ca304e1	0.019899787
13	0x3d99cdae	0.075099334
14	0xbce32f03	-0.027732378
15	0x3dcc635c	0.09979889

norm3.weight f4 [16]
0	0x3f903ee8	1.1269197
1	0x3fa015ec	1.250669
2	0x3f7124c9	0.94196755
3	0x3f943c3e	1.1580884
4	0x3f9f6018	1.24512
5	0x3f6b4915	0.9190839
6	0x3fc9afdb	1.5756792
7	0x3fc3574b	1.5261015
8	0x3fa5e427	1.2960252
9	0x3f9ba9cf	1.2161196
10	0x3f958aed	1.1683022
11	0x3faad4a3	1.3346142
12	0x3f8ff9b9	1.1248084
13	0x3f8872e9	1.0660068
14	0x3f6346c2	0.8877984
15	0x3f847ea8	1.0351152

norm3.bias f4 [16]
0	0x3d53a39d	0.051669706
1	0x3cbf8a00	0.023381233
2	0x3d3405e3	0.043950927
3	0x3d24a7d1	0.040199105
4	0x3cb479f2	0.022030804
5	0x3c749888	0.014928944
6	0x3d2b7096	0.041855417
7	0xbd0fbb87	-0.03509095
8	0x3c737f40	0.014861882
9	0x3ddfaede	0.10922025
10	0x3de1ee5f	0.11031794
11	0xbe901f6f	-0.28148982
12	0x3e10d41b	0.14143412
13	0x3d3639cb	0.04448871
14	0xbdbeb0f1	-0.09311093
15	0x3dcc0f81	0.09963895

norm4.weight f4 [16]
0	0x3f7f6cf8	0.9977565
1	0x3f86310d	1.0483719
2	0x3f956ccb	1.1673826
3	0x3f811e00	1.008728
4	0x3f77a384	0.9673388
5	0x3f95f21f	1.1714514
6	0x3f904256	1.1270244
7	0x3f9902b0	1.1953945
8	0x3f9974fa	1.1988823
9	0x3f5fcbcd	0.8742035
10	0x3f8249b8	1.0178747
11	0x3fb26be8	1.393918
12	0x3f90b0f6	1.1304004
13	0x3fa91e17	1.3212308
14	0x3f9e1dba	1.2352822
15	0x3f731d33	0.9496643

norm4.bias f4 [16]
0	0xbe0082f1	-0.1254995
1	0x3da7f7a6	0.08201532
2	0xbd1d2817	-0.03836831
3	0xbd51ec49	-0.05125073
4	0xbe0d4adf	-0.13798092
5	0x3d9bf043	0.07614186
6	0x3dae3a2e	0.08507191
7	0x3d891d28	0.06695014
8	0xbdaccd3c	-0.08437583
9	0x3dd28211	0.102787144
10	0x3d99a364	0.075018674
11	0xbda20ee8	-0.079129994
12	0x3df63d6a	0.120234326
13	0x3db61714	0.088911206
14	0x3d891cb5	0.066949286
15	0x3de2556c	0.11051449

fc_alpha.weight f4 [1, 16, 1]
0	0xbb43db42	-0.0029885327
1	0xbe9f86fb	-0.3115767
2	0xbe262402	-0.16224673
3	0x3ddaa67c	0.106762856
4	0xbe5279f2	-0.20554331
5	0xbf1c555b	-0.6106774
6	0xbdca4439	-0.09876294
7	0xbee1207d	-0.439701
8	0x3e25dc92	0.16197422
9	0xbf00698d	-0.5016106
10	0xbeca1fe0	-0.39477444
11	0x3dce44e7	0.10071736
12	0xbee73cd8	-0.45163608
13	0xbf12de7d	-0.5737074
14	0xbec75d51	-0.38938382
15	0xbefc7fab	-0.49316153

fc_spp.weight f4 [1, 16, 1]
0	0xbd90e796	-0.070754215
1	0x3e354f4b	0.17706029
2	0xbda6cf79	-0.08145041
3	0xbdea46ee	-0.1143931
4	0xbd6421f1	-0.05569643
5	0x3e8437b8	0.2582376
6	0xbdb6b167	-0.089205556
7	0x3e4a8bde	0.19779918
8	0xbe668382	-0.22511104
9	0x3e582a58	0.21109903
10	0x3e0b36b4	0.13595086
11	0xbe7bb764	-0.24581677
12	0x3e11dd12	0.14244488
13	0x3ea06de4	0.3133384
14	0x3e0abc3d	0.1354837
15	0x3e5d7103	0.21625142
