16k_v3/core/crnn_attention.pth (torch, 411593 bytes, 36 tensors)

cnn.0.weight f4 [48, 5, 7]
00000000: b6b6 473c 9066 d33c d4a5 093d aebe a6bd
00000010: e506 e5ba 4f4c 9ebb b759 993b a703 013d
00000020: 434e 22be fade ad3f bc27 20c0 5d8d 4e3f
00000030: 5fc6 873d b3e9 163d 7b82 943c 61e4 b1bd
00000040: d4d5 96bd 31ff 683e 6135 063d b5d8 d93c
00000050: 363b c3bd fec1 283c 78f1 b6bb 2f6a 4c3d
00000060: dd53 debc cf02 883d 7352 20bc 7965 c0bc
00000070: 3a04 7fbb 89b1 843a 5dc0 8eba 66d1 71bb
00000080: 428c 2bba 7743 41bb efb0 c83a 2c08 b53c
00000090: 1900 bcbd 8751 8bbe 868b 61be f159 1fbd
000000a0: 146e b23c 3c6a a73d 4676 f33d 59e3 a83e
000000b0: 7153 54bd 66c5 3cbe 3132 023d accc 723e
000000c0: c448 edbd a54b b7bd c2d0 743e 0adc 243e
000000d0: a0e7 81be 93e6 443e b6e5 1b3e 60d0 563d
000000e0: 7e60 b6bc c87c e63e 64ca cdbe baac fc3e
000000f0: 8f48 343f b510 353e 87e8 a43d 2183 003c
00000100: 2639 7cbc e036 29ba b619 173d 3905 91bb
00000110: d3b9 c3bc 8512 f63b abee 173d 3f19 953d
00000120: befa 163d d2d6 5bbd 7b66 2fbd 1a5b 81bc
00000130: 32f3 afbc 948e 313e fdf8 373e 08bc cd3e
00000140: d37a 42be 0ed1 a9be 948c a6be 9a19 84be
00000150: 53cd 0cbe 650d e0be 1384 b1be 5149 18bf
00000160: e0a4 8bbd 4348 553f 2102 6b3f 4ec0 69bc
00000170: 1d6d 61bc 8c45 a43d 7193 b23d afbf 9a3d
00000180: 95c6 ca3d 97bb 24bc e361 20bb 599d a2ba
00000190: cd12 143c 57fa 303c a099 90bb 7dd2 563c
000001a0: 1547 9c38 0a5f 1dbd 6845 893d a917 c93d
000001b0: 1937 86b9 658a 07be 6360 03be eb4b 88bd
000001c0: 6841 e93d 02d2 873e b7d3 d53e 9be1 c5bd
000001d0: 470c 3bbf 76bd 85be 3d65 c5be 1100 95bd
000001e0: 500e 683e ec5b be3e d87a 293e e9e3 91be
000001f0: 8fe9 0abe 2560 a23d 02e1 21bd 8417 e3bc
00000200: fdff be3c 3633 d8bd 3f05 d4bd 8018 e13e
00000210: f469 ed3e cc8b 1dbc 5783 533b bfe3 c3bc
00000220: adfe 43bc b357 50be d510 babd b575 2abd
00000230: ce1b c1bc d80e 68bb 06c7 af3c 5d72 113d
00000240: b664 013d dd4b 8abb d4e3 02bd 9fdf 743d
00000250: c742 0bbe ee53 6ebe be21 7f3f 4ea6 3a3e
00000260: f5d2 1dbf 5e10 733d b7e8 80bd 6402 4c3d
00000270: 948e 143f 3954 e2bf 8151 943d d250 793f
00000280: 6071 96be 167f 2e3c 6c3a adbc 7eaf d3bb
00000290: a423 aabc 4803 2d3d e064 7a3b b9cb c83b
000002a0: 3b55 c0bb 67b4 99bb fcc7 41bb af74 cdbb
000002b0: c7a0 9abb 5f8f 13bb 022f 83bc 2ecc 9d3c
000002c0: d351 563b 74fd c13c 1784 b93b 6e5a f5bc
000002d0: 280e 9dbd 913e e0bb 3763 d33e c544 c43d
000002e0: 890d 3b3e 1fc4 dc3e 0af5 a03d 6161 0ac0
000002f0: de5a 3dc0 0262 9fba 7e43 ec3d 8a11 353e
00000300: 252a 6b3e 4054 673e d368 66be 0749 a2be
00000310: 4f65 463d c681 7abc fcd0 123c db8e e0bd
00000320: bb14 fcbc 89ad 9fbd bdc2 f9bc f1c4 5b3a
00000330: d203 0bbc b0ce 6dbb 8b73 e83b 3c72 3f3c
00000340: f23d 603b 8237 853c f3ed 2abd f065 0abc
00000350: 8509 5b3c 04ee fe3d 115f 783e 4956 413e
00000360: ec39 1d3e 7cda a0bd 093f 90bd 7297 b73c
00000370: 0faf 0dbe 4fd7 183e cd1e 7e3b 357f 973c
00000380: 1137 ab3d c00a 6d3d 69df 8fbd 4602 89bd
00000390: 63a9 f73d 8d8d 0bbd 2400 c5bd 764e cbbd
000003a0: f149 97bd 3111 033e b282 1d3e 224b ed3e
000003b0: e200 f3be ca38 e9be 77cb 853c 839c 0b3c
000003c0: dfea a1bc 0d19 ca3c de34 c23d e6a1 29ba
000003d0: 6886 093b 2dca 503b 1062 263c 9aba fd3b
000003e0: 2655 f9bd 69df 45bd 7047 0d3e 096d 673d
000003f0: 2bbd 333d 2aee 093d 85d7 c33d 59e9 66be
0.012189558 0.025805742 0.03360541 -0.08141838 -0.0017473368 -0.004830874 0.0046798843 0.031497624
-0.15850167 1.3583672 -2.5024252 0.80684453 0.06629633 0.036843967 0.018128624 -0.08686138
-0.07365003 0.22753598 0.03276575 0.026592592 -0.09532778 0.010300158 -0.0055829845 0.049905952
-0.027139599 0.06641161 -0.009785282 -0.023485886 -0.0038912431 0.001012371 -0.0010891069 -0.0036898493
-0.00065440324 -0.0029489675 0.0015311519 0.022098623 -0.09179706 -0.27210638 -0.2202588 -0.038904134
0.021781005 0.081745595 0.11887793 0.32985952 -0.05183739 -0.18434677 0.031786148 0.23710889
-0.115861446 -0.08949975 0.2390776 0.16099563 -0.25372028 0.19228582 0.15224347 0.052444816
-0.022262808 0.45017076 -0.40193474 0.4935053 0.70423216 0.17682154 0.080521636 0.007843764
-0.015394485 -0.00064550154 0.036889754 -0.0044256714 -0.023892319 0.007509532 0.037092846 0.07280206
0.03686022 -0.053671665 -0.042822342 -0.01579051 -0.02147827 0.17339545 0.17966075 0.4018252
-0.18992166 -0.3316731 -0.32529128 -0.25800782 -0.137502 -0.4376022 -0.34671077 -0.5948687
-0.06818557 0.8331339 0.91800123 -0.01426704 -0.013758925 0.080210775 0.087195285 0.07556092
0.09901158 -0.0100544905 -0.0024472408 -0.0012406512 0.009037686 0.010801873 -0.004412845 0.013111708
7.4519e-05 -0.038420714 0.06702691 0.09818966 -0.00025599523 -0.13236387 -0.12829737 -0.06655105
0.113894284 0.2652741 0.41763088 -0.096621715 -0.7306561 -0.2612111 -0.385538 -0.07275403
0.2266171 0.37179506 0.16550767 -0.28494194 -0.13565658 0.07928494 -0.039521225 -0.027721174
0.023315424 -0.10556643 -0.10352563 0.43964005 0.46369898 -0.00961585 0.003227433 -0.023912309
-0.011962575 -0.20345955 -0.09085242 -0.04161616 -0.023572829 -0.0035409238 0.021457206 0.035509456
0.031590186 -0.0042204694 -0.031955555 0.059783574 -0.13599692 -0.23274204 0.9966086 0.18227503
-0.6165002 0.05934178 -0.06294387 0.049806967 0.58030057 -1.7681953 0.07242108 0.97388947
-0.29383373 0.010650417 -0.021146022 -0.0064601293 -0.020768948 0.042239457 0.00382071 0.0061278013
-0.0058695353 -0.004690695 -0.0029568663 -0.0062700133 -0.004718873 -0.0022515876 -0.016013626 0.0192624
0.003270258 0.023680426 0.0056614983 -0.029950347 -0.07668716 -0.006843396 0.41286632 0.09583429
0.18266882 0.4311838 0.078592375 -2.1621935 -2.958671 -0.0012159946 0.115363106 0.17682472
0.22965296 0.22590733 -0.22500925 -0.3169634 0.04843646 -0.015289729 0.008960959 -0.109647475
-0.030771604 -0.07796771 -0.030488366 0.00083835336 -0.008484798 -0.0036286525 0.007093852 0.01168495
0.003421661 0.01626182 -0.041730832 -0.008447155 0.013368969 0.12447742 0.24255015 0.18880571
0.15354127 -0.078541726 -0.07043273 0.022411082 -0.13836311 0.14925884 0.0038775683 0.018493274
0.083601125 0.05787158 -0.07025034 -0.06689887 0.12092855 -0.03407054 -0.096191674 -0.099270746
-0.0738715 0.12799527 0.15381888 0.46346384 -0.4746161 -0.4555114 0.016332371 0.008521202
-0.019765316 0.024670148 0.0948274 -0.0006470963 0.0020984653 0.0031858787 0.010155216 0.007743192
-0.12174444 -0.048308764 0.13796782 0.05650047 0.043881577 0.033674397 0.095625915 -0.22549953

cnn.0.bias f4 [48]
00000000: 61d5 003d ed88 a4be 70ba ca3b 88b1 be3c
00000010: 0a62 693d c0e6 b93d 9a37 2cbe 97b6 1ebd
00000020: cd7c e8bc ed71 e9bc e94f 38bd e52f 60bd
00000030: 8367 1ebe 0afa f9bd 3f4a 503d dad5 d4bc
00000040: 6070 c43d eb70 9e3d daf8 bcbe cb0d 2abe
00000050: b2c2 93be e522 05bc cbdf 1c3e 4f23 033e
00000060: 213c 013e c52f 8a3d 01bd 13be 5d3d 1f3e
00000070: 061a dbbb 651c 283e 1c1c e63c 199f 3f3c
00000080: b425 f93d 40a0 b03c e21e 21bd cda3 88bd
00000090: 7562 2c3d a17b e53c 24ff 0b3c d190 0c3d
000000a0: eaa3 193d 020e 373e a2a0 2dbe 1693 65bd
000000b0: 233f fabc 07e2 bcbe f50e a73c d622 d53d
0.031453494 -0.32135716 0.006186776 0.023278013 0.056978263 0.09077215 -0.16818085 -0.03874835
-0.028379822 -0.028496707 -0.044998083 -0.054733176 -0.15469174 -0.12205894 0.050852057 -0.025980879
0.09591746 0.07736381 -0.3690861 -0.16606824 -0.28859478 -0.008125995 0.15319745 0.12806438
0.12620594 0.067473926 -0.14427568 0.15550752 -0.006686452 0.16417082 0.028089575 0.011695647
0.121653944 0.021560788 -0.039336093 -0.066718675 0.042086083 0.028013052 0.008544717 0.034317795
0.037509836 0.17876437 -0.16955808 -0.056048475 -0.030547684 -0.36891195 0.020392874 0.10407035

cnn.3.weight f4 [48, 48, 5]
00000000: debe 08be 6818 01bd ec96 ed3e 4526 a1be
00000010: bb39 403e 9ecd f6bd 1ed8 8c3e 3ec9 8d3e
00000020: cf5d 9f3e 01ce 04bb 1412 24be c764 5f3d
00000030: 3c27 1c3b 18ee 46be cbed f0bc 3ac6 173e
00000040: 3fce 39bc 0e2a 96be 56f1 253c 5c1b 0bbe
00000050: 8dd1 e13e 7e95 ffbd feed b53d cdf8 843c
00000060: c3ba 1bbf eb0e 03bb a5b5 673d 3b39 52bc
00000070: 033d 333e 0651 a53e 29b4 473d 8f59 5c3d
00000080: 1ee6 1d3d 5ba4 5d3d c59a 0f3d 1010 573c
00000090: 5997 2d3e f65e 1a3d b7b4 a5bf 19b7 93bf
000000a0: 57f6 b53d b974 9bbd 7840 34bd b5ea bf3a
000000b0: a5b6 873c 348b 6cbd 1898 f8be daba 4abf
000000c0: b066 8ebe fb33 8f3e f115 e03d b42c e33d
000000d0: c0e5 a43e 3f2f 0b38 5701 0dbd 74fd cdbc
000000e0: 81f9 7ebd 6449 66be a184 6fbe 89b0 f3be
000000f0: ab97 c53c 3d6e 1a3e 0319 0abc f069 7e3b
00000100: 6ef8 e53d 8ee5 b73d 6471 b83d 7e80 e6bb
00000110: 6b84 a8bd 3e25 28be 6f43 2e3d 7412 ce3c
00000120: bc3d 1dbd 1e70 8f3d 2304 1d3e 6a20 08bc
00000130: 56ca ac3d 28de dabf 2d04 88bf fd69 78bf
00000140: 8ee6 8e3d 3b01 413e 7475 053e 5f70 c7bd
00000150: e798 b8be 4e64 ce3d 3e46 0c3e 6d82 23bd
00000160: 8840 013c 85fb bebc b206 793e 48e9 fb3c
00000170: da09 f43d 9b78 b83d 9e6f 05be aae1 a33e
00000180: b884 b73e 4db4 873d 9d1e 923d 3d0d 52be
00000190: 740b 073e cb82 d33b e94f 063e 4ef5 363e
000001a0: 9df2 5f3d c530 22be 4e38 10be 4de5 d4bd
000001b0: ef3f b3bd a64f 6bbe 0969 273e 0a36 e83d
000001c0: efd3 4bbd ab6d 8e3d 5516 06bf 5308 e93e
000001d0: c443 3a3d 59c0 71be 8406 37be 3afc 0dbe
000001e0: 867f 473e 7fe1 0b3e 238b 6f3e b19b 3b3e
000001f0: 19b5 fcbe 4a2c d339 0790 a93d 3922 95bd
00000200: e84b c8be 1f77 babe bb75 06be 49f2 f8bd
00000210: 8a10 38bd 4596 53bc 5066 7bbe ba08 b73e
00000220: 5c70 f23d d7ad 903d a6b1 0ebd a482 e9bd
00000230: 660c 4e3d db14 943d a045 d23d 8a69 963e
00000240: a6ef 813b 2df6 893e d53d 48bb f14f 6b3c
00000250: 21ac 6fbc b8d9 9dbe afba 4dbe e9dd fb3c
00000260: 5726 293d fa4c 58bd 33f8 553c aa78 34bd
00000270: 3b5b bbba 091c b13d 25a5 5f3e 6e48 b93d
00000280: 06b1 7ebc aa07 d33c c9cd c03d 9b4c aa3c
00000290: 697f 4cbe 02fb 9dbd 6097 d5bd 54c5 df3c
000002a0: 3850 a8bd fcbf 8bbe bfb4 2b3d 60a2 1fbe
000002b0: 806e eabd 3418 863d bfb2 b3bf a2e1 6d3c
000002c0: 2dc0 53bd 90f9 39be 7e15 59be 4156 91be
000002d0: 1ace 093d 4ea2 7b3d 8886 823c e25d 883d
000002e0: f965 a43d a61b 483e a387 183e 9776 4bbe
000002f0: 4688 0ebe 3cc2 83bd 2456 0e3e ad57 01bc
00000300: d8f7 8dbd 1b1b 2c3f 071c c7be 8340 bcbb
00000310: 8060 863d 2f2b a03d 6f2a c33d f2cd e73e
00000320: 5e5c 9dbc 7816 1d3d edbc 013e 7d70 fdbd
00000330: dc4e 2abe 14ca a5be bb92 92bf 2042 b1bf
00000340: dcb1 dbbf 48c6 1fc0 6108 343e b68f 2dbe
00000350: 9e98 a8be ebc8 b8be 4fbd 5bbf d563 9cbd
00000360: eb6c 813e b974 0d3e 4e93 f1be 3065 39bf
00000370: 3811 17be 885b aabf f41b 6cbf a129 bbbe
00000380: 3a08 7dbe 9511 47bd c354 e23d 6b77 563e
00000390: 0eb0 aa3c f881 4ebd 0d24 523d 846e 8e3d
000003a0: f329 e63d 0ce1 203e e000 2abd ce1a 333e
000003b0: 8997 893e 7800 103d 9fe8 3fbe d28a 113d
000003c0: bd5c a1ba 29bd 97ba cc97 a4ba 9615 133a
000003d0: d8be 24ba 80fa 0f3a 2d04 6cba e001 8cb9
000003e0: 8617 c6b8 b3d3 7ab9 63ab f5b9 82f6 9bba
000003f0: 0ebb edb9 b2d7 40ba 72a7 41ba 6ce6 9cb9
-0.1335406 -0.031517416 0.46404207 -0.3147451 0.18772022 -0.12050937 0.27508634 0.27692598
0.31126258 -0.002026439 -0.16022521 0.05453947 0.0023827096 -0.19426763 -0.029410264 0.14821711
-0.011340677 -0.2932896 0.01012834 -0.13584656 0.44105187 -0.12479685 0.08883284 0.016231919
-0.6083185 -0.0019997905 0.056569714 -0.012831028 0.17503743 0.32288378 0.0487558 0.053796347
0.038549535 0.05411182 0.03505971 0.013126388 0.16952266 0.037688218 -1.2945775 -1.1540252
0.08884876 -0.075906225 -0.044006795 0.0014642092 0.016566584 -0.057749942 -0.48553538 -0.7919136
-0.2781272 0.27969345 0.10941685 0.11092511 0.32206535 3.3184184e-05 -0.034425106 -0.02514527
-0.062249664 -0.22488934 -0.23390438 -0.47595623 0.024120172 0.15081115 -0.008428815 0.0038820468
0.11229025 0.08979331 0.090060025 -0.0070343604 -0.08228382 -0.16420457 0.04254478 0.025155284
-0.038388953 0.070038065 0.1533361 -0.008308509 0.0843703 -1.7099047 -1.0626274 -0.97036725
0.069775686 0.18848126 0.13033086 -0.0973823 -0.36054155 0.10077725 0.1369867 -0.039919306
0.007888921 -0.023313293 0.2431896 0.030750886 0.119159415 0.09007379 -0.1303086 0.32008106
0.35843444 0.066261865 0.07134745 -0.20512863 0.13187963 0.0064548007 0.13116421 0.17867014
0.054674733 -0.15838917 -0.14083979 -0.10395298 -0.08752429 -0.22979602 0.16348661 0.11338432
-0.049762663 0.06954511 -0.52377826 0.45514163 0.045474783 -0.23608531 -0.1787358 -0.13865748
0.1948224 0.13660239 0.2339292 0.1832111 -0.49356917 0.00040278054 0.08279424 -0.07281918
-0.39120412 -0.36419007 -0.13130848 -0.12155587 -0.044937648 -0.012914245 -0.24550748 0.35748845
0.11837837 0.07064407 -0.034837388 -0.11401871 0.050304793 0.0723054 0.10267186 0.29377395
0.003965336 0.2694563 -0.0030554433 0.014362321 -0.014628441 -0.3083017 -0.20090745 0.030745463
0.04129633 -0.052807786 0.013059664 -0.044060387 -0.0014294157 0.086479254 0.21840341 0.09047018
-0.015545135 0.02576049 0.094142504 0.020788481 -0.19970478 -0.077138916 -0.10429263 0.027315773
-0.082184255 -0.2729491 0.04192042 -0.15589285 -0.114468575 0.06547585 -1.4038924 0.014519127
-0.051696945 -0.18161607 -0.21199605 -0.2838612 0.03364382 0.061434083 0.01593329 0.06658532
0.08027262 0.19541797 0.14895491 -0.19869457 -0.13919172 -0.06433532 0.13900048 -0.007894439
-0.06932038 0.6722886 -0.3888857 -0.005744995 0.06561375 0.078207366 0.09529578 0.4527431
-0.019209083 0.038351506 0.12669726 -0.12374971 -0.16631645 -0.32380736 -1.1451029 -1.3848305
-1.7163653 -2.4964771 0.17581321 -0.16949353 -0.32928938 -0.36090788 -0.85835737 -0.07636229
0.2527841 0.13814057 -0.47182697 -0.72420025 -0.14752662 -1.3309183 -0.92230153 -0.36555198
-0.2471017 -0.048600752 0.11051323 0.20943992 0.020835903 -0.050416917 0.051303912 0.06954673
0.1123847 0.15710849 -0.04150474 0.17490694 0.26873425 0.035156697 -0.18741082 0.03553278
-0.0012310963 -0.001157676 -0.0012557446 0.00056108215 -0.00062845415 0.00054923445 -0.0009003308 -0.00026704278
-9.445757e-05 -0.00023920722 -0.00046857735 -0.0011899027 -0.0004534353 -0.000735636 -0.0007387317 -0.00029926316

cnn.3.bias f4 [48]
00000000: af62 c13d de45 a1ba 8f7f 553c 538a d1ba
00000010: 5f02 7c3d d7a1 c93c 674b 0cbf 1c60 45bd
00000020: fbec 0b3d b264 473e 6f9b b93d 6db1 1a3d
00000030: 5cee f63d 09fb 63bd ae34 b0bc 5ea8 98ba
00000040: e4ae 25bd c13d bc3d e484 bd3b 7745 183e
00000050: 4cb3 b33d 988c 2f3e 8716 803d 49e5 91bd
00000060: b1ce dcba 9ead 3bba 75e7 4abd ca92 523d
00000070: 03a8 39bc a48b afbd 4b5f 57bd ff70 e03d
00000080: 71c7 393e 6314 7fbd 77d2 b5bd ea15 f6b9
00000090: 9b16 dbbb 24db b0be 3620 d63b c2f6 f13d
000000a0: 5e55 8939 78e2 e5bb b5c6 943d deca 3abd
000000b0: 5e76 afbd e088 a43d 20d7 5a3e 74db db3d
0.094426505 -0.0012304147 0.013030901 -0.0015986658 0.0615257 0.024613304 -0.54802555 -0.04818736
0.03416155 0.19472006 0.0906285 0.037766863 0.12057182 -0.055659328 -0.021509495 -0.0011646857
-0.04044999 0.09191466 0.005783664 0.14870249 0.087744325 0.17143476 0.06254297 -0.07123811
-0.0016846267 -0.0007159355 -0.04953714 0.05140952 -0.011331561 -0.08571556 -0.052581113 0.10959052
0.18142487 -0.0622753 -0.088780336 -0.00046937104 -0.0066860444 -0.3454219 0.0065346016 0.118146434
0.0002619428 -0.0070155226 0.07264463 -0.045603625 -0.085674986 0.08033919 0.21371126 0.10735217

cnn.6.weight f4 [48, 48, 5]
00000000: ee7d 02be fb39 62be b682 ae3e 8e68 4f3e
00000010: 219e a23c 9e54 8cba 7207 6dba fc2d a5b9
00000020: a4a5 2539 0d47 4aba b4d9 4ebe f49d 8bbe
00000030: a964 e13d f432 a63e a2e7 593e 5333 09ba
00000040: 6080 2f3a 9000 df38 9070 0238 c15c 2fba
00000050: ec8a cbbc a101 03bd 3f78 f83d 19b2 dd3d
00000060: cbb3 9c3e 9990 40bd db74 583e 71b9 44be
00000070: ee94 0bbe 0503 50bd 0ea4 c5bd 14c4 093e
00000080: 2783 8a3e a875 89bc bee4 97bd 9943 0bbe
00000090: 5127 6b3e a02c 24bd a894 70be 263c 1ebe
000000a0: 34b2 d4bc d6ba 9b3e e99c a5bc d3ca 3a3e
000000b0: 84dd 5d3e 2c18 723e 5781 aebe bca9 e4bd
000000c0: 4759 16be de11 053e 9a7c e83d 1cc6 3f3d
000000d0: 8758 a23e 184d 853d 7fdb c03e a4f5 1a3e
000000e0: a79f 933e 01f5 003e 8f81 1e3e 498e 0e3e
000000f0: 9d3e 0d3d 9c43 bd3c 0803 f43d deb5 833d
00000100: 993e e6bd 8ae6 473e 5fb7 293d 9570 c5bb
00000110: 34c8 bb3c 9f4a 953d 9cf6 1ebd 5dea a33d
00000120: f033 303e ad4c 3a3e 7570 503e dcb7 be3a
00000130: 7e7b 88b9 f765 a23a ad0d bc3a daa2 ceb9
00000140: 6297 3f3d bba7 8bbe 5f59 a93e 740b dc3b
00000150: 7058 423d 7679 5f3d e9e3 653d 066b 75bc
00000160: 09c2 1e3d 6cf3 ff3d f008 16be 79cb b3be
00000170: d05a 4cbe e0b2 aebe 9acb 99bd 5ccc 7dbd
00000180: 33a4 623d c414 62bc 7ad1 bd3d 43f8 56bb
00000190: 5349 3e3d ccfb 3fbc fb6c 5d3e 69cd fabd
000001a0: aca1 473e 4617 aabd 55d9 0d3e 5fce 053e
000001b0: cab7 bf3d a9e3 b93e 4479 433e c08c 873d
000001c0: bf41 12be c25c c5bd 42b7 4ebe 85f7 5f3d
000001d0: db0e c93e 12c4 5dbe c3ae c7bd f378 5bbd
000001e0: 9229 0f3a 5a1f 8fba 0217 3038 948e 10ba
000001f0: f8ca 50ba c939 feb9 4bba a9b9 434a 8238
00000200: 646a 99b9 b4a3 d6b9 2eb7 04be 56be 8c3d
00000210: cbf6 07bf e8b5 c1be 3d93 b63d 2f52 80be
00000220: ab8c 943d 34e7 0abd 04da 513e 1a5a 8bbd
00000230: 8bff 1e3e 549f 8c3e e157 5a3e f872 da3c
00000240: 768d a33d 097a b9bd ed3c 7ebe a663 82be
00000250: 686e 55be 0e0f 9abe 9aa5 81be 852d 233e
00000260: 47ec 88be ceda c0be 3c8c 45be 4a6d 47be
00000270: 75ab dabe d85b 99be e04b a9be 3c66 acbe
00000280: afda 48be 6529 4bbe 8676 833d a468 d5bc
00000290: da54 233d e12c be3d 45f9 73be 6316 08be
000002a0: 3d1f 00bd 81da 393d a06c 213e 9322 87bd
000002b0: 9c4d 3abd 6ae4 3a3d 4cd1 323e 6428 a0b9
000002c0: 32f9 3e3a c16a e9b9 e1f9 2dba b2e7 a2b9
000002d0: a7ef 3abe 9c04 9d3c bb5f 913e 7c43 cbbc
000002e0: e98c 0cbd 1992 36be 9a0f 363e abb1 84be
000002f0: 9ed9 3dbe 8138 f3bd 4925 8fbe 7cac 0dbe
00000300: 2756 eebe 1a83 9ebe f6a7 96bd 7b46 213e
00000310: 8097 063c 0a61 1fbe b4e2 2ebc 2d81 d2bd
00000320: e4d3 023e 7bf5 de3c d07d 923e 9a2e e8be
00000330: a514 c53d c29a cebb 18d4 ab3c 1690 c63d
00000340: 18c4 a03d 63f3 3bbe 4d74 1abd 337f 533e
00000350: 0867 9a3e d16f b33e 264e 093e 8134 d83d
00000360: 4b6f dabb 8a7c 413d 7341 8b3e 5836 a03d
00000370: b7e3 6f3d ce11 98bd 01df 8f3e 7f1c 533e
00000380: f6ee 9f3e f72f 1bbe b777 3bbb 63da 13be
00000390: cb43 9cbe 33c8 9ebe 5bc7 283d 4740 a23e
000003a0: 4d9c b93d 8a32 933d 92a6 123e af96 1cbe
000003b0: 1b30 bfbe 6876 29be 3ffa b0be 8647 b33c
000003c0: 4afd e3bc 4690 dd3d 6e4b 31be e32c abbe
000003d0: 1849 97bd c8c7 dd3a d264 c3b9 ef29 b038
000003e0: 9281 7c3a 811e 833a d132 883e d887 b73e
000003f0: 2cf0 d13e 74c2 5b3e c925 953e df58 4939
-0.12743351 -0.2209243 0.340841 0.20254728 0.019850792 -0.001070637 -0.0009041942 -0.00031505513
0.00015797332 -0.0007716276 -0.20200235 -0.27268946 0.110055275 0.3246075 0.21279767 -0.0005233783
0.00066948496 0.000106335734 3.1099247e-05 -0.00066895416 -0.024846517 -0.031983975 0.1213231 0.10824985
0.3060592 -0.0470129 0.21138327 -0.19211365 -0.13631031 -0.05078413 -0.096504316 0.13453704
0.27053186 -0.016779736 -0.07416676 -0.13600005 0.22964217 -0.04008162 -0.23494208 -0.15452632
-0.02596388 0.30415982 -0.020216422 0.18241434 0.21666533 0.23642033 -0.34083053 -0.11165187
-0.14682494 0.12995097 0.11351891 0.04681979 0.31708166 0.06508845 0.37667462 0.15132767
0.28832743 0.12593462 0.1547911 0.13921465 0.03448354 0.023103528 0.11914641 0.06431173
-0.11242408 0.19521537 0.041434642 -0.0060253837 0.022922613 0.072896235 -0.038809404 0.080036856
0.17207313 0.18193312 0.20355399 0.0014550644 -0.0002603195 0.0012390007 0.0014347337 -0.00039412716
0.04677523 -0.27276406 0.33075997 0.0067152325 0.04744762 0.054559194 0.056125555 -0.01497913
0.038759265 0.12497601 -0.14651847 -0.35116175 -0.19956517 -0.34120846 -0.07509537 -0.06196247
0.055332374 -0.013798896 0.0926847 -0.0032801784 0.046456646 -0.011717748 0.21623604 -0.1224621
0.19495267 -0.0830522 0.13852437 0.13067006 0.09361227 0.36306503 0.19089228 0.06618643
-0.14282893 -0.09636833 -0.20187095 0.054679412 0.39269146 -0.21656826 -0.0975013 -0.053582143
0.00054612115 -0.0010919378 4.1983098e-05 -0.000551441 -0.0007964815 -0.0004848971 -0.0003237299 6.2127154e-05
-0.000292617 -0.0004093923 -0.12960503 0.06872241 -0.5311095 -0.37834096 0.08914802 -0.250627
0.07253393 -0.0339119 0.20493323 -0.06804295 0.1552717 0.27465308 0.21322586 0.02666615
0.07985966 -0.090564795 -0.24827929 -0.2546665 -0.20842898 -0.3008961 -0.25321656 0.15935333
-0.26742765 -0.37666935 -0.19291776 -0.19475284 -0.42708936 -0.29952884 -0.330657 -0.3367175
-0.19614671 -0.1984001 0.06419091 -0.026050873 0.039875843 0.09285904 -0.23825558 -0.1328979
-0.03127979 0.045374397 0.15764093 -0.065983914 -0.04548417 0.04562799 0.17462653 -0.00030547671
0.0007285058 -0.0004452076 -0.0006636661 -0.00031071674 -0.18255483 0.019167237 0.2839335 -0.024812452
-0.03431407 -0.1782917 0.17779389 -0.259168 -0.18540046 -0.11876012 -0.27958134 -0.13835329
-0.46550104 -0.30959398 -0.07356255 0.15749542 0.008214831 -0.15564361 -0.010674167 -0.102785446
0.12776142 0.027216664 0.28611612 -0.45348054 0.09623078 -0.0063050697 0.020975158 0.09695451
0.07849902 -0.18354563 -0.03770857 0.20653991 0.30156732 0.35046247 0.13408718 0.10556889
-0.006666099 0.04723791 0.2719837 0.07822865 0.058566775 -0.07425271 0.28099826 0.20616339
0.31237 -0.15155016 -0.002860529 -0.14438777 -0.30520472 -0.31012115 0.041205745 0.31689665
0.09063015 0.07187374 0.14321354 -0.15291856 -0.3734139 -0.16549075 -0.34565923 0.021884691
-0.027830739 0.108185336 -0.1731393 -0.33432683 -0.073869884 0.0016920501 -0.00037268415 8.400145e-05
0.00096323446 0.0010003598 0.2660127 0.35845828 0.4100355 0.21460897 0.2913039 0.00019201961

cnn.6.bias f4 [48]
00000000: 55fb 123e 39b9 b33e 7c14 0d3e 7073 fdbd
00000010: bced 54bd 95c6 093e 00c9 58ba 7d1f 353e
00000020: 53c4 5f3e 7a0c 8fbe c082 083d df39 843e
00000030: 8f97 1bbf c54c 69ba cbcb 3dbb 4822 5e3d
00000040: 133d b2bd 5e76 483e e1bc c4bc 3d88 4dbd
00000050: c644 733e 15bb 703e 850a 843e 5566 faba
00000060: 2098 c23d 6124 82bd 51fc 1ebb 662b a63e
00000070: e84c a5be 05f6 edbc 93c8 c43c 72e5 17bf
00000080: 990a 263e af2b 94ba ed98 19bb 3a52 7cbe
00000090: 2576 9dbe 67de 13bf 0d0e ad3e e349 813e
000000a0: ccbe 51bd 2bc0 88be dd87 a1be bdc6 8b3d
000000b0: 00bf 73be 6621 33bc 9dd9 c0be 9cb7 503e
0.14353688 0.3510225 0.13777345 -0.123755336 -0.051984534 0.1345466 -0.00082696974 0.17687793
0.21852235 -0.27939206 0.033327818 0.25825402 -0.60778135 -0.0008899684 -0.0028960581 0.054231912
-0.08703055 0.19576403 -0.024015846 -0.050178755 0.23756704 0.23508866 0.25789276 -0.0019103984
0.09501672 -0.06354595 -0.002425928 0.32454985 -0.32285237 -0.029047975 0.024021422 -0.5933448
0.1621498 -0.0011304523 -0.0023437098 -0.24640742 -0.307542 -0.57761234 0.33799782 0.25251684
-0.05120735 -0.26709113 -0.31548968 0.06825016 -0.2380333 -0.010933256 -0.37666026 0.20382541

cnn.8.weight f4 [48, 48, 3]
00000000: 2a3d 3339 49a3 82ba 74d9 0cbb 6c48 59bb
00000010: 11a5 57bb 6a96 52bb ace2 5aba e8ea aeba
00000020: 4d8e 68ba b422 acba 81b5 84ba b37d 92b9
00000030: 0e81 54bb aac8 e5ba 2aa7 4dba 9dea eaba
00000040: 0584 9e39 cd15 f13a e788 a0ba 0995 52ba
00000050: 92a2 5339 a001 09bb 0b32 13bb 625b 35ba
00000060: f7b2 0abb e085 1abb f24e 5ebb 99ea afba
00000070: 9f45 16ba 56ad 8dba 3cf7 40bb f122 44bb
00000080: e6ed 31ba 06b8 0bbb c8b6 95ba 513b 1bba
00000090: 935a 32ba eae3 783a aa4f 90b8 ac3d d4b8
000000a0: 34f8 243a a795 883a 5ee9 753a 8714 d5b8
000000b0: 026b 6b3a d05f b1b9 7d38 c939 d72a 393a
000000c0: 0905 82b9 c23f 54ba f4d6 fcba 9839 bcba
000000d0: 6ad0 ce39 6327 8e39 6187 0dbb fc80 deb9
000000e0: 4f11 08bb d8bc a2ba 8299 acba 2f47 0aba
000000f0: 0c1f e3ba 909d 033a 4f37 7539 9562 f8b9
00000100: 6d23 55ba 840b f8b9 fe34 9aba d08c 8eba
00000110: 0ec4 c5ba 407e 83ba 07ab 16ba bb96 8839
00000120: 8395 5fba 9510 d738 de86 c736 74eb 7139
00000130: b79c c7ba 3350 43ba bb1a 8cba 04b4 a539
00000140: 76b3 d1b9 2933 15ba 849f e2ba 9759 4db8
00000150: c732 19bb 97b2 06bb 3c4d 27bb b02a e3b9
00000160: 6878 253a ac6c 9ab9 a0f8 9aba 7949 59ba
00000170: 1b17 00bb fcb7 fab9 b2f5 f3ba 0ae4 52ba
00000180: 6c08 26bb 9228 c8ba aa81 2bbb 44a5 09ba
00000190: c9e6 163a f035 4f3a 9c3e d138 c3c2 97ba
000001a0: e03b 45ba 35e2 44b9 3e9b 50ba f5b8 253a
000001b0: ac20 203b 7aff 6a3a 5859 4fb8 d27a 80b9
000001c0: 106f 4fb9 7e93 de39 d031 3eb9 1b4c 61ba
000001d0: 8ef0 26ba db52 c938 13f0 83b9 a7e4 a3ba
000001e0: 26ab b338 2a8b f23a e198 51b9 b9e3 32b9
000001f0: cd7c 71ba 85c1 d8ba ee9a a138 ecc1 1538
00000200: 3b25 59ba 43dd 8eba f78a 94ba b489 5f3a
00000210: d02e a7ba 971b 1cba 61e5 b7ba ab16 33b9
00000220: cc17 31ba 14ff fc3a 74ac ecb8 7404 22ba
00000230: 8feb 02ba b43b 51bb f576 abba cdfa 79ba
00000240: ce98 b6bd dfd7 91be dba5 b6be 7629 0f3c
00000250: 7d3f b03e fad3 1f3e 36bb f63d baf5 483e
00000260: bf0b 4a3d 5dd2 6c3d ed1c 073e cb48 eebe
00000270: dddc a33d f692 9fbd 8bd8 83be 3c41 a23d
00000280: e517 9d3e 8498 a9be b8ec fab9 ae61 b53a
00000290: c6bc 0fba 580a 88bd 0964 78bd df04 06be
000002a0: cbab 8e3e 484f 013e 066d bc3e c7b3 683e
000002b0: 5d9d e23d 49fa 743e b3b3 c2ba ed82 cebd
000002c0: 345a a6be 3d67 5fbd 15fe 5c3d 4e17 7e3e
000002d0: 6a22 023f 1357 9f3e f7f7 8e3e 231b ab38
000002e0: fd02 7ab9 55f4 55ba 8738 9b39 76ea 0f3a
000002f0: efcb c039 d5d5 523e a679 983e 563a c63e
00000300: 6a3b e13c 14bf aebd ae6b 98bd 635a 333d
00000310: 3fef 6dbd 8e19 83be e065 e63d 3ace 5b3e
00000320: 32f8 3c3d ca89 483c 2459 1d3e 3a70 9a3d
00000330: 4479 f93d 22e8 643e 806e 753e 44e8 3b3d
00000340: 7a20 3cbe de2e 9fbd 5d85 1e3e ec12 163e
00000350: 1e4d 803e 5c5e 6b3a b346 8eba b011 1dba
00000360: c442 24bb e4a1 2cbd f501 abbe f69b 74be
00000370: 14d8 78be e34b dbbe d45a 21b9 6d20 d2ba
00000380: 6ed4 7dba 0559 a03b 5f1b dbbd 6f27 12be
00000390: d7c1 33bd 64ee 413d 2ba6 bcbe 9026 283d
000003a0: d84a 2dbc 3344 1b3d 3afa d6bd 677d 213d
000003b0: 3634 643e 381c abbc 3171 3abe 1e2f 20be
000003c0: 07f5 773c 1a9e 74bd 61a8 3ebe 88a4 9f3a
000003d0: 04ca 1eb9 d136 1dba 8b48 bfbd a9ab 37be
000003e0: 12a3 1fbf b357 b4be 897a 113c d75a 06be
000003f0: 46bd 5b3b 033c 34be 4d19 07bf a052 bd3d
0.00017093556 -0.0009966876 -0.0021491917 -0.003315474 -0.0032904784 -0.003213311 -0.0008349817 -0.0013345154
-0.0008871302 -0.0013132901 -0.0010124893 -0.00027940943 -0.0032425555 -0.0017531116 -0.0007845039 -0.0017922703
0.0003023447 0.0018393338 -0.0012247831 -0.0008033072 0.0002018309 -0.002090551 -0.0022460248 -0.0006918219
-0.00211638 -0.002357833 -0.0033921567 -0.0013421356 -0.000573242 -0.0010809104 -0.0029444238 -0.0029928053
-0.0006787464 -0.0021319403 -0.0011422271 -0.00059216196 -0.0006803658 0.0009494411 -6.881294e-05 -0.00010120435
0.00062930887 0.0010420576 0.0009380783 -0.00010160455 0.0008980484 -0.00033831457 0.00038379795 0.00070635736
-0.00024799284 -0.0008096659 -0.0019290135 -0.0014360426 0.00039446662 0.00027113696 -0.0021595585 -0.0004243924
-0.002076227 -0.0012415899 -0.0013168307 -0.00052748894 -0.0017327978 0.0005020732 0.00023385625 -0.00047375695
-0.0008130584 -0.00047310826 -0.001176506 -0.0010875706 -0.0015088336 -0.0010032132 -0.0005747531 0.00026052244
-0.0008529054 0.000102550875 5.9463628e-06 0.00023071264 -0.00152292 -0.000745061 -0.0010689119 0.00031605375
-0.00039997295 -0.00056915224 -0.0017289971 -4.8959246e-05 -0.0023376213 -0.0020553225 -0.0025528213 -0.0004332862
0.00063121924 -0.00029454136 -0.0011823364 -0.00082888413 -0.0019545022 -0.00047820795 -0.0018612652 -0.0008044845
-0.002533461 -0.001527088 -0.0026169815 -0.0005250762 0.00057564356 0.00079044607 9.9775585e-05 -0.0011578429
-0.00075238757 -0.00018776285 -0.0007957703 0.0006321811 0.0024433536 0.00089644606 -4.9435854e-05 -0.0002450557
-0.00019782432 0.0004245303 -0.00018138369 -0.00085944094 -0.0006368243 9.59986e-05 -0.00025165136 -0.0012504057
8.567264e-05 0.0018504609 -0.00019988745 -0.00017060236 -0.0009212017 -0.0016537166 7.705936e-05 3.5704972e-05
-0.0008283441 -0.0010899681 -0.0011332919 0.0008527294 -0.001275504 -0.0005955039 -0.0014030152 -0.00017079215
-0.000675556 0.0019302093 -0.00011285479 -0.0006180473 -0.00049942074 -0.0031926455 -0.0013081717 -0.00095359684
-0.08915864 -0.2848501 -0.35673413 0.008737912 0.34423438 0.15608206 0.120474264 0.19624987
0.04932761 0.057817806 0.13194628 -0.46539912 0.08001111 -0.077917024 -0.25751147 0.07922599
0.30682293 -0.33124173 -0.00047860085 0.0013838315 -0.00054831465 -0.06642598 -0.060642276 -0.13087796
0.27865443 0.126279 0.36801928 0.2272483 0.11065171 0.23923601 -0.001485458 -0.10083566
-0.32490695 -0.054541815 0.05395325 0.24813578 0.5083376 0.3112112 0.27923557 8.15897e-05
-0.00023842971 -0.00081617135 0.0002960602 0.00054899545 0.00036773036 0.20589383 0.2978031 0.38716382
0.027494151 -0.08532539 -0.07442413 0.04378737 -0.05808949 -0.25605434 0.112499 0.21465388
0.046135135 0.012239883 0.15366036 0.07540937 0.12181333 0.22354177 0.23967934 0.045875803
-0.18371764 -0.07772611 0.15480562 0.14655656 0.25058836 0.0008978599 -0.001085481 -0.00059917103
-0.002506421 -0.04214658 -0.3339993 -0.2388762 -0.24301177 -0.42831334 -0.00015387993 -0.0016031392
-0.00096828386 0.0048934245 -0.1069858 -0.14272855 -0.043886032 0.047346488 -0.36845526 0.0410524
-0.010576926 0.037906837 -0.10496946 0.039426234 0.22285542 -0.02088748 -0.18207242 -0.15642974
0.015134103 -0.05972109 -0.18618919 0.0012179771 -0.00015143311 -0.0005997243 -0.09340008 -0.17936577
-0.623582 -0.3522316 0.008879312 -0.1312059 0.0033529564 -0.17601018 -0.5277298 0.09244275

cnn.8.bias f4 [48]
00000000: fbbe 94bb b9e9 243f f769 d2ba 0397 cb3e
00000010: 521a 4bbf cf53 abbf 8a13 d23e 7d83 133f
00000020: ea07 9abf 28b8 25bd f73c f6be 3862 15bb
00000030: 6e28 353e fd02 5ebe 91c7 1dbb 5aa0 02bc
00000040: d95d 1e3f 8619 30be a4be 92be 59a1 8ebb
00000050: 12b4 12be 10c1 013e 4279 f8be 5342 6fbd
00000060: 94f6 ccbe d628 2a3e f756 393f 55b5 173e
00000070: eb94 47bb 0cfe b0be 4c85 8c3e f70f 533e
00000080: 8de4 3bbb fd53 55bd 2f02 8dbc e135 393c
00000090: ce47 88be e558 c63e 2cec 833f 926d 0dbb
000000a0: 884b efba d8f2 0bbb 54ee e8bb a791 7e3f
000000b0: 3c30 6c3e 8851 4fbe 2f84 cdbd c69e a6bb
-0.004539368 0.6441913 -0.0016053308 0.3976365 -0.79337037 -1.3384951 0.41030532 0.5762251
-1.2033665 -0.04045883 -0.48093387 -0.0022794139 0.17691204 -0.21680827 -0.002407525 -0.007972801
0.6186195 -0.17197236 -0.28661072 -0.0043527302 -0.14326504 0.12671304 -0.48530012 -0.05841286
-0.40031874 0.1661714 0.7239832 0.14815266 -0.0030453752 -0.34568822 0.27445447 0.20611559
-0.0028670162 -0.05208205 -0.017212955 0.01130435 -0.26617283 0.38739696 1.0306449 -0.0021580202
-0.0018256763 -0.0021354463 -0.007108489 0.99441 0.23065275 -0.20245945 -0.10034978 -0.0050848452

cnn_norm.weight f4 [48]
00000000: 4134 4b3e c49c 073f 7960 683e 1a75 e83e
00000010: 2194 123f 7351 123f 744f e13e 7467 de3e
00000020: db94 1d3f e32b ec3e 0576 113f bbc5 693e
00000030: 7d94 e83e 7d23 d83e 4157 603e 4111 613e
00000040: c108 0e3f e5b0 f13e a0e4 e63e a805 5d3e
00000050: 98fc ef3e c442 0a3f 15f0 143f 5b53 ef3e
00000060: 0248 fa3e 843f ba3e 1488 df3e c81d dd3e
00000070: 5eb3 6a3e 15dc 133f 9ac6 2e3f c885 093f
00000080: ea99 5e3e e57b ef3e 6f16 f83e f4ad 093f
00000090: 32fe c93e d226 fd3e 31a7 083f 11db 3b3e
000000a0: 7187 593e 5884 293e 3f56 5c3e 71bc 003f
000000b0: 4871 cc3e bf27 e43e 308a d23e 76fe 5f3e
0.19844152 0.5297358 0.22693051 0.4540184 0.57257277 0.5715553 0.4400593 0.43438303
0.6155526 0.46127233 0.5682071 0.22829334 0.45425788 0.42214575 0.21908285 0.21979238
0.5548211 0.47205272 0.45096302 0.21584189 0.468724 0.54008126 0.58178836 0.46743283
0.48883063 0.36376584 0.43658507 0.43186784 0.22919986 0.57757694 0.6827179 0.5371976
0.21738401 0.46774212 0.48454615 0.53781056 0.39451748 0.4944368 0.53380114 0.18345286
0.21243073 0.16554391 0.21517275 0.5028754 0.39930177 0.44561574 0.41121054 0.21874413

cnn_norm.bias f4 [48]
00000000: d547 f63d b204 d7bd 12c9 0e3e 39ec b8be
00000010: fcb9 803e 3207 6d3e 24b4 33be 11af 0fbe
00000020: 17bc 993e 39c6 45bc 1964 a33c 4ac3 0f3e
00000030: 0089 0c3e 14bf 153d ed36 093e 7cb4 093e
00000040: de84 c7be 9b1e d73d cf7d b93d d7fe 063e
00000050: 2e7f e83c b7a1 873e c379 d13c f708 463d
00000060: 7761 4e3e 0357 79be fcdd a1be b7e3 973c
00000070: 307c 103e d1a2 423e 2f8e ea3d 1f21 27be
00000080: 6426 083e 0f84 e7bc 6644 e4bd 8bf8 153e
00000090: 6b84 3e3e 2672 62be 5bb0 91be 74cf e13d
000000a0: bc96 043e e007 ca3d 9e94 063e a260 48be
000000b0: 1f18 56be 0db8 19be 5180 453e 3cff 083e
0.120254196 -0.104989424 0.1394389 -0.36117724 0.25141895 0.23147276 -0.17549187 -0.14031626
0.30026314 -0.012071186 0.019945191 0.1403934 0.13724136 0.03655918 0.13399859 0.13447756
-0.38968557 0.105038844 0.09057199 0.13183151 0.028380957 0.26490566 0.025570756 0.048348393
0.20154367 -0.24349599 -0.31614673 0.0185412 0.14109874 0.19007422 0.114529006 -0.16321228
0.13295895 -0.028261213 -0.111458585 0.14645593 0.18605201 -0.22113857 -0.2845486 0.11025897
0.12948126 0.09864783 0.1314263 -0.19568112 -0.20907639 -0.15011616 0.1928723 0.13378614

gru.weight_ih_l0 f4 [192, 48]
00000000: 429e 0cbe bda1 35be 879e 26be 3dc3 f9bd
00000010: 93e8 43be 52bf 64bf 557b 083f 722c db3e
00000020: a195 1d3e 02fc a8bd 726b 3a3e 8467 28be
00000030: 5b84 66be e3a3 7fbe 0682 20be ed24 21be
00000040: 638a 58be e148 e9bd ffda 74be a14b 1cbe
00000050: 12ba 13bf e0d0 2bbf d7ac 833e 0459 02be
00000060: 7c88 813e bc10 873c b63c a2bc 15e6 3cbf
00000070: 04c8 28be 151d 62be b950 f33d a42b 9cbe
00000080: 2576 20be e723 7f3e 9258 3b3e 0440 0c3f
00000090: 9082 4bbf f42a 183e d81d f53e 8c8e f6bd
000000a0: fe6f 19be 6254 cdbd 92e0 1bbe c512 1cbe
000000b0: d576 b43c 85bc 993e 4af2 ff3c cba2 1fbe
000000c0: 6646 61bd 21c2 a5be 2fa2 97bd f603 bbbe
000000d0: b332 a93d 39ee 773e bd87 90be 2160 58bf
000000e0: c933 89be 7c09 ce3e 7eb7 4a3f b59d 9cbd
000000f0: e3ff 2d3e 4b8d 5abe 272c 86bd 80b9 85bd
00000100: 1feb 9d3e 84c4 10bf c2a5 15bf d1b6 80bd
00000110: b273 19bf c703 19be 0ca0 4f3e fbac c9bd
00000120: dd92 6c3d 1c42 f13d bfa0 ef3e 1ad8 43be
00000130: 293f 9dbd c0c7 c33e 21c6 f73e b3f8 713c
00000140: f2e5 88bd cfb9 c43d a8ff d4be 2be5 e8bd
00000150: aeb5 6c3e 2c84 1c3f 6c4f b9be 71b4 2bbd
00000160: cc05 77bd adf6 03bd b130 83bd 8ad8 4cbf
00000170: 79ab c9be be8d 2abd c06b 69be b4b7 86bd
00000180: 0022 23be ba98 2f3e f211 28be 07f5 863e
00000190: 07ac d9be c966 123f cbe4 903e b59c f33d
000001a0: 56b5 f9bd be66 19bd 0757 9bbc c330 28be
000001b0: ebc4 86be d1f4 28be 86fc 24be 5130 26be
000001c0: 24ad d2be 3edb 59be 7350 67bd 214b 25be
000001d0: 2a68 353d 814d a73c 5e9f 143e 3ee6 90bd
000001e0: 96a9 d63e be66 c43e 08e8 79be 1cdc c8be
000001f0: a8c3 27be 1eeb 98be 0420 94bd 27fd 3a3f
00000200: e69e 26be 5d02 c13d 420b f53e 6a20 29bf
00000210: c91a 0a3f 07ff f1be 9915 6e3e c661 21be
00000220: 428a 25be 1a3a 1fbe 1b08 28be 716c ce3e
00000230: 6b80 35bd 220f ee3d 1d20 a2be 89fa 26be
00000240: 72b0 313e ed16 24be 9cf1 613e b06f 443d
00000250: cad5 9339 6591 013d 1624 d6bd ca8c c9be
00000260: 8494 3fbe c773 983d 90ad 70bd cdf2 653e
00000270: ae83 64be 59a5 b33e c3a0 523e c16c 523e
00000280: dbb8 c9be 0995 603e a38f 003e 5f2f 4c3e
00000290: da5b 85be 4bd7 6cbe 6067 513e f9c8 8f3e
000002a0: 370c b3be 2e27 9abe 8edf fabd a82f 99bd
000002b0: 06e3 673e edf7 d63c 8fc7 40be b204 dcbc
000002c0: 5f47 533e d9c7 c4be 10e4 903e 8db6 b5bb
000002d0: 4ca6 4f3e b200 903e 0bad a73e 6973 143e
000002e0: 0dea 443e aa93 e93d ce13 4e3e 45d4 ac3d
000002f0: a914 813e 9cdc 74be 2521 8dbe 7d65 533e
00000300: 5aa5 083e 942a 953e 5fca 083e 0244 033d
00000310: 6a9a c03e b409 8cbe 3355 ed3e 9e7b aebe
00000320: 771d cebe 3ba1 cbbe fcc1 5bbe 3e5d 0a3e
00000330: 8c26 8a3d 21be afbd 2624 083e f715 093e
00000340: fef0 17be 91e9 8fbe d54f 453f 580d 073e
00000350: 42cd cebe d37b 2dbe 4e07 f03d 5f2e b2be
00000360: 91e0 d63d 3f17 c6bd a266 15be 7ec3 6f3e
00000370: a63f 0b3e b834 0abe 6f3c b03d 74c3 8f3c
00000380: bf84 093e 7213 41be 6598 473e 415f 8f3e
00000390: f295 0c3e 83be 6e3e 9e4c 8b3e e767 063e
000003a0: a88d 073e 1c39 033e 3762 093e 631a 58be
000003b0: b7b5 283e 91fa 22be 0ef6 49bf 7639 083e
000003c0: 759e 05bd 1fe9 1abe d2bb e2bc 1067 383f
000003d0: c162 573d 5430 083d 4931 d9bd 6a14 333e
000003e0: ac90 03bc c456 283e 41f3 553e 7719 d3bc
000003f0: d145 21be 01c7 0bbe b7f0 f7bc a0ec f9bc
-0.13732246 -0.1773748 -0.16271411 -0.12195442 -0.19131689 -0.8935443 0.5331319 0.42807347
0.1538911 -0.08251192 0.1820505 -0.16445738 -0.22511427 -0.24964862 -0.156746 -0.15736742
-0.2114654 -0.11390854 -0.23911665 -0.15263225 -0.57705796 -0.6711559 0.25717804 -0.1272927
0.25299442 0.016487472 -0.01980434 -0.7378858 -0.1648255 -0.22081406 0.11880631 -0.30502045
-0.15670069 0.2491604 0.18295506 0.5478518 -0.794961 0.14860135 0.4787433 -0.120389074
-0.14984128 -0.1002586 -0.15222386 -0.15241535 0.02202932 0.3002664 0.031243462 -0.15589444
-0.054998778 -0.3237467 -0.07403981 -0.3652646 0.08261623 0.24211968 -0.2822856 -0.8452168
-0.2679732 0.4024161 0.79186237 -0.07647268 0.16992144 -0.21342961 -0.0655139 -0.06529522
0.30843446 -0.5654986 -0.5845605 -0.062848695 -0.5994216 -0.14942847 0.20275897 -0.098474465
0.057757247 0.117801875 0.46802327 -0.19125405 -0.076780625 0.38238335 0.48393348 0.014768767
-0.066844836 0.09605753 -0.416013 -0.11371835 0.2311618 0.6113918 -0.36193407 -0.04192013
-0.060308263 -0.03221767 -0.064057715 -0.8001791 -0.39388636 -0.041639082 -0.2279501 -0.06578007
-0.15930939 0.17148104 -0.16413096 0.26358816 -0.4251406 0.5718809 0.28299555 0.11895124
-0.1219279 -0.0374515 -0.018962396 -0.16424851 -0.2632211 -0.1649964 -0.16111955 -0.16229369
-0.4114772 -0.2127504 -0.056473207 -0.1614194 0.04428879 0.020422699 0.14513919 -0.07075165
0.4192626 0.38359636 -0.24404919 -0.3923043 -0.1638323 -0.2986688 -0.07232669 0.7304253
-0.16271552 0.09424279 0.47860152 -0.66065085 0.5394712 -0.47264883 0.23250426 -0.15759954
-0.16166022 -0.15549508 -0.16409342 0.4031711 -0.044311922 0.1162398 -0.31665125 -0.16306509
0.17352465 -0.1602437 0.22064823 0.047958076 0.0002819731 0.0316328 -0.104561016 -0.39365226
-0.18708998 0.07443958 -0.058759272 0.22455902 -0.22315857 0.35087088 0.20569138 0.20549299
-0.39398846 0.21931852 0.12554793 0.19939946 -0.2604664 -0.23129003 0.2044959 0.28083017
-0.34970257 -0.30108017 -0.12249671 -0.07479793 0.22645196 0.026241267 -0.18826126 -0.026857708
0.20632695 -0.38433722 0.28298998 -0.0055454434 0.20278281 0.2812553 0.3274921 0.1449715
0.19229908 0.11405118 0.20124742 0.08438925 0.25211075 -0.23912281 -0.2756435 0.20644183
0.13344327 0.29134047 0.13358448 0.03204728 0.3761781 -0.27351153 0.46354064 -0.34078687
-0.40256855 -0.39771447 -0.21460718 0.13512132 0.067456335 -0.08581186 0.1329504 0.13387285
-0.14838025 -0.28107885 0.7707494 0.13188684 -0.40390974 -0.16941766 0.11720143 -0.34801003
0.104920514 -0.096724026 -0.14589933 0.23414418 0.13598499 -0.13496673 0.08605277 0.017549254
0.13429545 -0.18855074 0.19491728 0.2800236 0.13729075 0.23314862 0.27206892 0.13125573
0.13237631 0.12814754 0.13416372 -0.21103816 0.16475569 -0.15915896 -0.78891075 0.1330317
-0.03262182 -0.15127991 -0.02767745 0.7203226 0.052584413 0.033249214 -0.106051035 0.17488256
-0.008030098 0.16439348 0.20893575 -0.025768979 -0.15749289 -0.13650133 -0.030266149 -0.03050834

gru.weight_hh_l0 f4 [192, 64]
00000000: a96f 03bf 5edc fabe 0f51 cf3b 893e f43c
00000010: 88b3 eb3e a084 a0be 59c7 b6bc dcb5 81be
00000020: 8f65 d1be 4cb9 273d b715 91be 815a b23e
00000030: 993e 12bd 7d50 5c3e b36e 09be 8206 003c
00000040: cd19 483f d404 9bbc 1295 7a3e 98f6 f2be
00000050: 1398 47bf cc0d fe3d 027e d63e 0f16 31be
00000060: 0dbe 143e 12bd d23e 118f d0be 8bec 88be
00000070: ad9c f0be b825 00bf c737 42be 43d9 d03d
00000080: 0b66 963e ed00 23be 4a99 56be 8974 a33e
00000090: e96b d3bd 5b9e 6e3d 09ae 403e 425b 433d
000000a0: 9c3a 573e a5ce f33e dfd4 833d 80d4 043f
000000b0: 4435 ee3e 6e38 8bbd 9cd3 b5be e1e3 823e
000000c0: 98fd 5a3c 3f56 b13d 981b ecbd 290d 2dbd
000000d0: a38c efbd a5bc 11be 655d b9bd 4104 b93e
000000e0: 327e 80be 6b73 bc3e a70b 003e f523 18bf
000000f0: 6ade 75be 4c75 2b3e b3ef ec3e 34c5 b83e
00000100: 60ed 173e 89e3 64be 10e4 9a3c f6ee ccbe
00000110: 9220 41bd ce14 41be 02d0 b6bd 74d9 1dbd
00000120: 5d04 813e 9ab5 3bbc e384 4c3e 3530 123e
00000130: cb2a 8dbe 36ce 31be a589 da3e a91a 6a3e
00000140: 4e20 223e db19 95be fe5d 31be 4890 9f3d
00000150: a075 233e 066c a53d ff17 e63e 8566 b83d
00000160: c478 003e 7ebb ac3b cda3 be3d f3f3 8c3d
00000170: 5fac bf3b 5ca3 b23e 1139 5a3e e1cd b53e
00000180: 2c99 c1be c7ba 963d 1095 ffbd cc87 8ebe
00000190: b803 f03e 3b7c 873d eff5 84be db6a b9bc
000001a0: cd07 343e 2b99 1bbe 516d b3be 562f ca3e
000001b0: 3c55 81be 4b08 db3c 5b09 133e 6e62 f83d
000001c0: a926 06be fea3 aabb 4d27 7bbe 7931 2bbe
000001d0: 0fd9 53be 1235 8fbe ec48 c1bd 46e0 99bd
000001e0: 736d 14be fb9a c8be b311 b0b9 9a82 d73d
000001f0: 3a2b bdbe 55f0 9b3c 7729 513e a952 143f
00000200: 6b9d f8ba 9451 dfbe f9ba 06bf 24e7 433e
00000210: 3659 a2be 845f 003e 68e6 66be 6233 f13d
00000220: 6deb 9c3d 12f9 63bd 154f 41be 3e8f 7dbd
00000230: d23c 873e 9d10 05bd 5912 6abd 2a62 e1be
00000240: 6e8a 89be d422 01be 59b0 0cbf a41f f43e
00000250: 1178 713e 73d4 733e a27e 79bc 0c30 c4bd
00000260: f6ae e83e 86d2 0bbe 5a2c d6bd 15fc ab3e
00000270: b352 ec3d 0c98 97be 8c0e e13c 3327 06bf
00000280: 076d 03be dc26 053e 9010 283d 1325 2a3e
00000290: c2e6 6e3e 277d 5c3e 984e 2f3e c435 f83d
000002a0: e3d9 a9be c15b 8fbd 3e57 f93d 7fee 4cbe
000002b0: d030 273e 5d2a 033e 2bd4 b9bd 92b1 22be
000002c0: 9f51 9ebe 7cd7 cc3d 1b94 4dbf 0a9a 9d3e
000002d0: 5ddd ec3e 5039 353e baf1 4dbe 587b 553e
000002e0: 7db3 58bd e64a 59bf a217 08bf a531 b4be
000002f0: 0800 a1bd 8a9f 003f b9e6 993d d302 e93d
00000300: 44eb 0f3f 0494 91be 30c5 88be a7d1 bcbe
00000310: e2e5 123d f9fb 6b3e 02e8 473e 4a42 f9be
00000320: 2d33 2c3e 75f9 ba3e 4133 3cbe 454a 663e
00000330: 2dc3 a43e 6e1a bfbd 927a a33d d112 703e
00000340: 9d65 02be 7cec 4cbe c6ac 9cbe ecbb 913d
00000350: cb9e a23d 7b6f be3e 09dd 95be 1e00 57be
00000360: 56f6 303e f2be 9b3e f4d0 833e b7c9 e7bc
00000370: df8e 53be 8426 5b3e 09ed cb3e 3d33 b33d
00000380: 2167 963d 8c20 733c a619 4bbe 8e9f 223d
00000390: 1755 983e 4bc8 923c 2e86 603f 3b6f 0bbe
000003a0: ff61 aabe 05ed a9bd 2d54 4abf f825 de3e
000003b0: 3f67 703e 1cef 603d b92e 103e b92e 3a3d
000003c0: 6326 1d3f 8fe2 a33e 6181 943d 981d e9bd
000003d0: 0b43 f63e 760f 8b3e 77aa d2bd 5565 703e
000003e0: 047e 71be 0e48 51be 684b ca3e 5248 ccbd
000003f0: 0fb1 673e 680e b8be 2e35 8a3e d24c 6abe
-0.51342255 -0.48996252 0.0063268016 0.029814975 0.4603541 -0.31351185 -0.022311853 -0.2533406
-0.40897796 0.040948197 -0.2833688 0.34834674 -0.03570423 0.21515079 -0.13421135 0.007814052
0.7816437 -0.0189232 0.24470928 -0.4745376 -0.7796642 0.12404975 0.4189301 -0.17293571
0.14525624 0.41159874 -0.4073415 -0.26742968 -0.46994534 -0.50057554 -0.1896659 0.101976894
0.29374728 -0.15918322 -0.20956913 0.31924847 -0.103233166 0.05825649 0.18816389 0.047694452
0.21018451 0.47618595 0.06437086 0.5188675 0.46525013 -0.067978725 -0.35513008 0.25564483
0.0133661255 0.08659028 -0.115287006 -0.04224888 -0.11696746 -0.14232118 -0.09051017 0.36136058
-0.2509628 0.36806807 0.12504445 -0.59429866 -0.24010625 0.16743964 0.46276626 0.36087954
0.14836645 -0.22352423 0.018907577 -0.40026063 -0.047150202 -0.18855593 -0.08926393 -0.038537458
0.2519864 -0.011456871 0.19972567 0.14276202 -0.2757171 -0.1736382 0.4268314 0.22861733
0.15832636 -0.2912129 -0.17321011 0.07791191 0.15962839 0.080772445 0.44940183 0.09003929
0.12546068 0.0052713742 0.09308586 0.06882467 0.0058494057 0.34890258 0.21310832 0.35508636
-0.37812173 0.07359844 -0.12479603 -0.2783798 0.46877837 0.06615492 -0.25968882 -0.02263396
0.17581101 -0.15195148 -0.3504434 0.3948924 -0.2526034 0.026737353 0.14359038 0.12128149
-0.13100685 -0.0052075377 -0.24526711 -0.16718091 -0.2068827 -0.27970177 -0.09437737 -0.0751348
-0.14494877 -0.3918074 -0.00033582523 0.10522957 -0.36947042 0.019035498 0.20425974 0.5793863
-0.0018967813 -0.43616927 -0.5262905 0.19131142 -0.31708688 0.12536436 -0.2254883 0.117773786
0.076620914 -0.055657454 -0.18877824 -0.061904185 0.2641359 -0.032486547 -0.057146404 -0.44020206
-0.26863426 -0.12610942 -0.54956585 0.4768039 0.23580958 0.23811512 -0.0152279455 -0.09579477
0.45445985 -0.13654527 -0.10457678 0.3359076 0.11539211 -0.2960819 0.027472757 -0.52403563
-0.1283456 0.13003105 0.04103142 0.16615705 0.23330215 0.21532117 0.17119825 0.1211963
-0.33174047 -0.069999225 0.12174843 -0.20012854 0.16327214 0.12809129 -0.09073671 -0.1588805
-0.30921647 0.10002038 -0.80304116 0.30781585 0.46262637 0.17697644 -0.20111743 0.20847833
-0.05290555 -0.8487991 -0.5316106 -0.35194126 -0.07861334 0.5024344 0.0751471 0.11377492
0.5621836 -0.2843324 -0.26712942 -0.36878702 0.035863765 0.23045339 0.19522098 -0.48683387
0.16816397 0.36518446 -0.18378927 0.22489269 0.32180157 -0.09331213 0.07982363 0.23444678
-0.12734075 -0.20012087 -0.30600566 0.071159214 0.079404436 0.37194428 -0.292702 -0.20996138
0.1728147 0.30419117 0.25745356 -0.028294427 -0.2065997 0.21401411 0.3982928 0.08750007
0.07343889 0.014839303 -0.19834003 0.039702944 0.29752418 0.017917773 0.8770474 -0.1361665
-0.3327789 -0.08297161 -0.7903469 0.43388343 0.23476885 0.054915532 0.14080323 0.045454714
0.613867 0.32008788 0.072512396 -0.11382598 0.48098025 0.27160233 -0.1028642 0.23476155
-0.23583227 -0.20437643 0.39510655 -0.099747315 0.22626136 -0.3594849 0.26993698 -0.22880867

gru.bias_ih_l0 f4 [192]
00000000: 26cc 42be 4e2c d0be d0e4 b33d 9bbd 3cbe
00000010: 5e63 8abd 9999 f23d 350f 49be 1ab5 61be
00000020: 6dbc 8dbe 397b 92bd fefa 4abe a4a8 8ebe
00000030: 7ea9 63be e274 bcbd 108d 7ab8 9b65 5cbe
00000040: 7cac dbbe b1d0 f8bc 1cd5 a8bc cc5d b1be
00000050: cd75 c4bd 814b d43d 66c8 3abe 295d cdbd
00000060: 670b afbd b152 8dbe 24fa 41be 1549 b7bd
00000070: e631 cebe ab48 91be 1a88 d4be 8314 1abe
00000080: af64 1ebe 3064 96be 7544 c1be a343 85be
00000090: dffd 37be 41ec 40be b45e 1cbe efc4 30be
000000a0: fcb7 25be 0e97 75be 05a0 3cbe 873c 95be
000000b0: 2d6a 36be cdd5 a0be df44 7ebe 7af5 97be
000000c0: 448b bcbb 4d35 43be a3ca 98be abaf 80be
000000d0: f60b 5dbe 7f89 6fbe 9833 bebe e813 36be
000000e0: 4af0 50bd a83f 00bd abb8 84be b359 cebe
000000f0: e619 90be 8887 1abe c50f 29be ff3e 3dbe
00000100: d83d 2f3f 6f37 d03d bbe2 0c3f c8c7 413f
00000110: 0f4f b23e 81bd 0b3f 95b5 f23e 5244 77bd
00000120: 25dd 95bd d015 03bd 6e48 0cbf c50c 46be
00000130: 721f 263e c425 153f dad8 db3e 48e4 d73e
00000140: f23d 983c 262d b3bd 3103 a53e 839f 283e
00000150: e784 443f 202c 2e3f 5f12 1d3f 2d52 3c3f
00000160: 0dbc 96be 83c2 5cbe 101f ac3d b7e2 153e
00000170: 2ca5 26be bcd7 11be 296e 373e 880d 2ebd
00000180: 2483 153f 45ae febe dbb8 8b3e 93ee ab3e
00000190: 1298 4a3e b524 0cbf 920c 53be b3fc efbe
000001a0: 4b82 1dbe f6e4 f43c 19eb 5c3f cf77 2fbe
000001b0: 8c92 e83e b3c1 acbd cf89 9fbe e335 72be
000001c0: 4e6d 283f 723e c4be ef82 abbe 98ad 05bb
000001d0: 6f4f 3e3e 8830 12be 80bb 673e 3325 9abe
000001e0: 2468 ca3e fd2b 183f 643f 92be e202 e43d
000001f0: a253 bbbe 5242 603f d8c1 403f 467d 0f3f
00000200: 412e 64bc 1a3f 533d f534 62bd 1497 133e
00000210: bc3b 87bd 7598 8dbd 1e06 a03d 36de 55bd
00000220: ef33 dabb 8679 7a3d fb19 c13d 3a37 823e
00000230: 4c0e 04be 4d08 cd3c 66c8 22be fd5e a93c
00000240: e452 383d 364d eebd 52e6 3ebc 11e9 95bd
00000250: e64b 2abd c710 9a3c d17b debc 939c c33d
00000260: b001 bb3a 08f7 36bd 387a cb3c 2a37 0b3e
00000270: f598 bcbd 906f 633d 1db3 b23c 41c1 90bd
00000280: 6685 ae3d 6789 0f3b 51e8 4abb 06cf d93b
00000290: 700d a2bd 7b34 cebd ae2e 8f3c 203c 16bd
000002a0: 8257 59bd 0bd0 42bd 3b71 ebbd 8383 75bc
000002b0: 04d9 e5bd 9eb2 d73c ca9c b23a 201b ec36
000002c0: fdae 053e 42eb 403c 8302 f2ba d123 bfbd
000002d0: f03a cd3d e96a 043e 9699 a5bd b559 353d
000002e0: 980d cc3d 5f11 68bc 8f36 13bc 5c11 ebbd
000002f0: dda8 ae3d 79a1 e3bb d76c e1bc 6d1a 00bd
-0.19023189 -0.40658802 0.08783877 -0.18431704 -0.06757234 0.11845703 -0.19634707 -0.22041741
-0.2768282 -0.07152409 -0.19822308 -0.27863038 -0.22232625 -0.09201981 -5.973602e-05 -0.21523134
-0.42905033 -0.03037295 -0.020609431 -0.34641874 -0.09592781 0.10365964 -0.18240508 -0.100275345
-0.08547097 -0.2760215 -0.18943077 -0.08949486 -0.40272444 -0.28375754 -0.41510087 -0.15046887
-0.15468095 -0.29373312 -0.3774754 -0.26028165 -0.17967938 -0.18840124 -0.15270501 -0.17262624
-0.16183466 -0.23983404 -0.18420418 -0.2914774 -0.1781394 -0.31413117 -0.2483096 -0.2967947
-0.0057539064 -0.19063301 -0.298421 -0.25134024 -0.21586594 -0.23392294 -0.37148738 -0.17781031
-0.051010408 -0.031310707 -0.2592214 -0.4030281 -0.2814476 -0.15090764 -0.16509922 -0.18481062
0.6845374 0.10166823 0.55033463 0.75695467 0.34825942 0.54586035 0.4740416 -0.06036789
-0.073175706 -0.032003224 -0.5479802 -0.19340809 0.16222933 0.5826075 0.42938882 0.42166352
0.018584225 -0.08748846 0.32228997 0.16467099 0.7676529 0.6803608 0.6135616 0.7356289
-0.29440346 -0.21558575 0.08404362 0.14637266 -0.16273946 -0.14242452 0.17913117 -0.042493373
0.5840323 -0.49742332 0.2728947 0.33580455 0.19784573 -0.5474351 -0.20610264 -0.46872482
-0.15381734 0.029894333 0.8629623 -0.17135547 0.45424306 -0.08435383 -0.31159827 -0.23653369
0.65791786 -0.38328892 -0.33498332 -0.002039766 0.18584989 -0.14276326 0.2263012 -0.30106506
0.39532578 0.5944212 -0.28563988 0.11133362 -0.36587244 0.87601197 0.7529578 0.5605053
-0.013927043 0.05157385 -0.055226285 0.144131 -0.0660319 -0.069138445 0.07813667 -0.05221387
-0.006659023 0.06115105 0.094287835 0.2543276 -0.12896079 0.025028372 -0.15896758 0.020675177
0.045000926 -0.116358206 -0.011651592 -0.073198445 -0.04157629 0.018806828 -0.02715865 0.095513485
0.0014267471 -0.04466918 0.024838552 0.13595262 -0.09208862 0.055526316 0.021813923 -0.0706811
0.085215375 0.0021901967 -0.0030961225 0.0066469936 -0.07912719 -0.100686036 0.017478313 -0.036678433
-0.05306197 -0.047561686 -0.114962064 -0.014984968 -0.11223033 0.026330288 0.0013627049 7.036506e-06
0.13055034 0.01177484 -0.0018463883 -0.09333003 0.10021007 0.12931408 -0.08085935 0.044275004
0.0996353 -0.014164298 -0.008985176 -0.114779204 0.08528302 -0.0069467393 -0.02751772 -0.0312752
